app/src/main/assets/models/hyperxray_large_int8.onnx (onnx, 553313 bytes, 32 tensors)

net.0.bias f4 [512]
000000 97 a0 98 bd c3 79 29 3d a6 ed aa bc 87 15 65 bc
       -0.07452505 0.041375887 -0.020865273 -0.013982183
000010 f8 0f 55 bd 1d 88 2e ba 72 54 0c 3e 98 31 2f bc
       -0.052017182 -0.00066578557 0.13704088 -0.010692976
000020 34 32 42 bd b8 2d 52 be 5f 32 9e 3d 04 b6 c9 3d
       -0.04741116 -0.20525253 0.07724451 0.0984917
000030 89 00 c6 bd ae d2 e9 bd e7 51 10 3e cb a1 09 be
       -0.09668071 -0.11417137 0.14093743 -0.13440625
000040 b4 65 66 3e 55 28 bf 3c 43 60 e8 3d 7e b6 db 3d
       0.22499734 0.023334661 0.113464855 0.10728167
000050 a9 20 ae 3b 07 5b 0a be f2 ad c5 3b 4b b4 61 3d
       0.005313952 -0.13511287 0.006032699 0.05510358
000060 b5 8c a4 bd a3 91 3f bd 75 1b 92 3d 22 b5 ba 3d
       -0.0803465 -0.04676975 0.07134143 0.091165796
000070 64 fc f9 3d d6 d4 74 be ee a1 38 3e d2 ac 59 3d
       0.12206343 -0.23909315 0.18030521 0.05314333
000080 94 45 e2 3c 42 b7 28 be 79 a4 1b be c6 4e 57 be
       0.027621068 -0.16476157 -0.1519946 -0.21026143
000090 a4 32 08 3e 39 e1 ec bc 32 27 7d 3d 5d 27 ca 3d
       0.13300568 -0.028915988 0.061804958 0.09870789
0000a0 09 2e ed 3d aa 9a 17 3e d6 83 8a bd d6 9f 83 3e
       0.11581046 0.14805093 -0.06763427 0.25707883
0000b0 55 ed 85 3d ac b9 51 bd 42 28 91 3d 71 b1 25 bd
       0.06539408 -0.05120246 0.07087757 -0.040452424
0000c0 d5 74 05 be 5c fc 9e bb eb d2 06 be cf e0 1f be
       -0.13032849 -0.004851861 -0.13166396 -0.15613101
0000d0 6c b6 37 3d dc 40 78 3d dd 0d 1e 3d 85 bd 24 3d
       0.044851705 0.06060873 0.03858744 0.040219802
0000e0 68 5e 12 3e 01 6b 25 3e bc 87 45 3e dc bb b9 bd
       0.14293826 0.161541 0.1929006 -0.090690345
0000f0 76 97 cf bd 48 d5 df 3d 3c 20 9a 3d 7e 2a 17 3d
       -0.10136311 0.10929352 0.075256795 0.036905758
000100 c7 78 93 bd cb 20 b1 3d 26 fd 75 3e 6a 1c 59 be
       -0.07200771 0.08648833 0.2402235 -0.21202245
000110 21 27 5c bd 0d 6b a0 3d 29 d7 1a 3e fa f3 09 be
       -0.053748254 0.07832918 0.1512114 -0.13471976
000120 2a ef 78 bd 5f 59 1d 3e cd 5b 22 3d 2b 24 32 be
       -0.06077496 0.15366124 0.03963833 -0.1739661
000130 b3 f1 a0 3c c5 85 8b 3d 2b e3 64 3d 97 72 38 3d
       0.019646501 0.06812624 0.055880707 0.045031156
000140 27 e4 43 be b6 62 66 bb f7 f1 09 bd eb 53 24 bd
       -0.19130002 -0.003515405 -0.03367802 -0.040119093
000150 78 b1 f8 3d d8 ec 66 3d a4 0b 1b 3d 14 8a 57 bd
       0.121432245 0.056378216 0.0378529 -0.052621916
000160 20 65 9f 3d 3d 65 94 bd 95 29 23 3e 70 67 30 be
       0.0778296 -0.07245872 0.15933831 -0.17226958
000170 7e 0d a6 bb 5c 62 94 bd c7 f7 f7 3d 96 74 8c 3d
       -0.0050675264 -0.07245323 0.12107807 0.068581745
000180 f2 06 b4 3d b6 97 11 bd 82 9f f8 bd 76 49 3d 3d
       0.08790387 -0.035545073 -0.12139799 0.046212636
000190 1f f7 83 3d d9 1a a6 bd 23 25 47 be 7b a7 e5 bc
       0.06443619 -0.081105895 -0.1944776 -0.028033962
0001a0 2d 23 bd 3d d8 45 05 be 5e 84 03 be 84 00 13 bd
       0.09235225 -0.13014925 -0.12843463 -0.035889164
0001b0 78 95 cc 3b 48 e3 7f 3d d5 07 41 3d e1 4e 8a 3d
       0.006243404 0.06247261 0.04712661 0.06753326
0001c0 c2 07 ca bd 71 a3 f5 3c 5b 83 c3 bd 02 79 8a bb
       -0.09864761 0.029985161 -0.095465384 -0.004225851
0001d0 bd 28 4e 3e e3 21 b1 3d e8 7f 0d 3e f3 cf 11 3c
       0.20132728 0.086490415 0.13818324 0.008899677
0001e0 65 75 59 be ac 4c 21 3e 09 18 07 be 41 aa de 3d
       -0.21236189 0.15751904 -0.13192762 0.10872317
0001f0 b6 a1 9c 3c 03 29 f4 bc 26 8c 74 3d 2b c4 1f bd
       0.019120079 -0.029804712 0.05970397 -0.03900544
000200 28 ee 39 bc 0a d8 d0 3d 6c 68 cd bd 34 68 eb bd
       -0.011348285 0.10197456 -0.100296825 -0.114944845
000210 6d a8 7d 3d ca 6d b8 3d 0f 38 0c be ed 81 d5 3d
       0.0619282 0.090053156 -0.1369326 0.10425172
000220 eb 42 0a 3d 0e fe 8d 3d 53 08 21 be 0c 10 0e 3d
       0.033755224 0.06933223 -0.15725832 0.034683272
000230 6c ce 95 bd c9 ca e0 3c 75 42 82 3b 64 42 fe bd
       -0.073147625 0.027440445 0.0039752075 -0.12415007
000240 01 12 a2 3c 5c 80 4a bd 25 bd 54 3d 47 99 5d bd
       0.019783976 -0.04943882 0.051938195 -0.054101255
000250 31 7b ba bd 42 ba 17 3e d6 bb 28 be 8a f3 28 bb
       -0.09105528 0.14817145 -0.16477904 -0.0025779926
000260 71 d8 01 3e 6b cd 01 3e 4e 5a 4f 3e 4e 9b 56 3e
       0.12680222 0.12676017 0.20249292 0.20957682
000270 d6 e6 55 bd 7e c7 a3 3d cb c1 c3 39 1a 97 01 3e
       -0.052222095 0.079970345 0.00037337685 0.12655297
000280 82 01 8d 3d 9b 51 02 3e ca da 5c bd 67 5a 3e 3e
       0.06885053 0.12726443 -0.05391959 0.18589173
000290 ad e3 b1 bd 84 68 db bc d6 84 25 be 07 6e 05 be
       -0.08686004 -0.026783235 -0.16163954 -0.13030253
0002a0 09 dd 3f bc 2c 93 28 3c 2d 20 19 3e b9 cd d6 bd
       -0.011710414 0.010288995 0.1495368 -0.10488457
0002b0 ac b1 85 3d e2 de 32 be 18 52 0f 3e e2 73 9d 3d
       0.06528029 -0.17467836 0.1399616 0.076881185
0002c0 3c d4 74 bd 4d be 5c 3d 73 5c 20 3e 58 fd 49 3d
       -0.059772715 0.053892422 0.15660267 0.049313873
0002d0 2b 43 13 3d 71 ca 1b be 07 02 83 3d fa 66 73 3d
       0.03595273 -0.15213944 0.06396871 0.059424378
0002e0 79 e1 05 3e 7a 5c 04 3c 1c f9 28 3e 6d a4 9f bc
       0.13074292 0.008078689 0.16501278 -0.019487584
0002f0 11 28 15 be d9 8f 85 be 1e 15 2b 3e 3a fb 12 be
       -0.14566065 -0.2608631 0.16707274 -0.14353648
000300 41 33 10 3e 7b ca 04 3e 2c 62 28 be 10 cb 1f 3e
       0.14082052 0.12967865 -0.164437 0.15604806
000310 bf 09 e6 3d d5 25 10 3e ab 35 d6 bc 99 2f 52 3e
       0.11232328 0.14076932 -0.026148638 0.2052597
000320 ab ea ec bc e1 2e ae 3d 09 7c 27 3d 6c fd fd bc
       -0.028920492 0.08505035 0.040889774 -0.03100463
000330 8b ad 10 3e 93 25 90 bd 65 de 69 bd f0 54 3b 3e
       0.14128701 -0.07038417 -0.057096858 0.1829412
000340 ba b8 63 3c 40 b1 64 3c cf 95 ee 3d a0 c1 3a be
       0.013899023 0.013958275 0.116496675 -0.18237925
000350 2d a1 0e 3e cb c6 2b 3e b4 23 9c bd c7 ba bd bb
       0.13928671 0.16775052 -0.07623997 -0.005790088
000360 fd 17 e2 3c 15 04 a5 bd d2 96 cd 3d e0 39 60 3e
       0.02759933 -0.08057419 0.10038532 0.21897078
000370 12 71 1b be db 00 1e be bd f6 d6 3d a4 d4 cb 3d
       -0.15179852 -0.15430014 0.1049628 0.09952667
000380 04 dc ea 3d 1e f3 be 3d c5 aa 06 3e 1c 77 9d bd
       0.11467746 0.09323715 0.13151081 -0.07688734
000390 19 98 1e be cf f1 02 3d c2 c3 55 3e c4 fc 4b 3e
       -0.15487708 0.031968888 0.20875457 0.19920641
0003a0 93 2d 5d bd d3 42 5c 3a 28 74 fe bd 33 ff 4d 3d
       -0.05399854 0.00084022916 -0.12424499 0.050292205
0003b0 7a 41 da bd 38 40 48 bd f0 26 a3 bd 33 6f c8 bc
       -0.1065702 -0.04888937 -0.07966411 -0.024467086
0003c0 de 41 09 be 29 45 40 3e 9a 0c 70 3c 13 80 f9 bc
       -0.13404033 0.18776383 0.014651442 -0.030456578
0003d0 e0 b7 1f 3d af 04 ba bd 62 53 f6 bd 46 88 2b be
       0.038993716 -0.090829246 -0.12027623 -0.16751203
0003e0 cf cb 0c 3e c6 fa 74 bd 6b 63 10 be 2b 35 35 3d
       0.13749622 -0.05980947 -0.14100425 0.044240158
0003f0 5a 04 7c 3c fc d6 e7 bd 01 5b 48 be d9 d8 08 3e
       0.015381897 -0.11320302 -0.19565965 0.13363971

net.1.weight f4 [512]
000000 3d 35 7c 3f 6f fe 76 3f 65 c8 7a 3f 1c 6c 81 3f
       0.98518735 0.96481985 0.9796203 1.0111117
000010 8b 8b 75 3f 27 82 75 3f dd 56 77 3f b8 5f 70 3f
       0.9591605 0.9590172 0.9661692 0.93896055
000020 54 ed 7b 3f a2 74 76 3f 9c bf 82 3f f7 d1 70 3f
       0.9840901 0.9627172 1.0214725 0.9407038
000030 b0 cb 81 3f 1a a5 72 3f ef ef 75 3f 6c 7e 85 3f
       1.0140285 0.94783175 0.96069235 1.0429206
000040 4f 3f 6c 3f d8 3e 82 3f db 4a 63 3f 68 f8 84 3f
       0.922841 1.0175428 0.88786095 1.0388308
000050 56 5f 7b 3f 02 2b 7f 3f c7 80 82 3f b0 43 7a 3f
       0.98192346 0.99675 1.019555 0.9775953
000060 68 c2 79 3f 26 c5 7d 3f 09 15 83 3f 23 ad 81 3f
       0.97562265 0.9912895 1.0240794 1.0130962
000070 f0 b3 89 3f 9c 25 88 3f be ac ac 3f 23 a3 87 3f
       1.0758038 1.0636477 1.3490217 1.059666
000080 4b e9 81 3f c9 c5 78 3f 76 c5 80 3f 38 fa 81 3f
       1.014932 0.97176796 1.006026 1.0154486
000090 a7 59 70 3f 45 a2 6c 3f 32 c2 75 3f d1 c8 82 3f
       0.938868 0.92435104 0.95999444 1.0217534
0000a0 31 31 73 3f a6 f7 82 3f e7 88 75 3f 9a ce 78 3f
       0.94996935 1.0231826 0.9591202 0.9719025
0000b0 92 49 69 3f ed 7b 75 3f 1f 43 7e 3f 51 7b 72 3f
       0.91127884 0.9589222 0.9932117 0.94719416
0000c0 2f 5e 7c 3f 62 2a 88 3f 37 dd 7b 3f 5e fe 6e 3f
       0.9858121 1.0637934 0.9838442 0.93356884
0000d0 2a 73 68 3f 92 b4 6e 3f b2 a0 81 3f 0a bb 6b 3f
       0.90800726 0.9324428 1.0127165 0.92082274
0000e0 8d ed 6a 3f 1c 16 7b 3f 4b 4c 83 3f 5a f1 76 3f
       0.91768724 0.9808061 1.0257658 0.96462023
0000f0 b1 26 72 3f 62 cb 6a 3f 82 d6 7f 3f a0 61 79 3f
       0.9459029 0.9171659 0.9993669 0.9741459
000100 01 8f 78 3f c1 18 70 3f a5 ba 83 3f 8f 4e 88 3f
       0.97093207 0.9378777 1.0291334 1.0648974
000110 4d 56 70 3f 93 c7 69 3f e2 b7 84 3f 03 cf 80 3f
       0.93881685 0.9132015 1.0368617 1.0063175
000120 53 d4 82 3f 99 54 71 3f e4 fe 79 3f cf d5 80 3f
       1.0221046 0.9426971 0.9765456 1.0065249
000130 ac c7 76 3f 76 25 81 3f 74 26 7d 3f ba 13 62 3f
       0.96398425 1.0089557 0.988868 0.8831135
000140 8a be 6e 3f e9 d9 78 3f 64 b0 74 3f 91 c8 75 3f
       0.9325949 0.97207505 0.9558165 0.96009165
000150 d7 2d 82 3f 2a e6 77 3f 79 77 88 3f a0 b3 79 3f
       1.0170239 0.9683558 1.066146 0.9753971
000160 25 11 68 3f c7 cf 7d 3f e6 c4 80 3f a8 2c 6c 3f
       0.9065116 0.9914517 1.0060089 0.9225564
000170 39 1f 81 3f 24 00 77 3f 3f 0a 80 3f ad 77 7a 3f
       1.0087653 0.9648459 1.0003127 0.9783886
000180 75 29 6f 3f 92 7b 81 3f 60 af 80 3f e6 bc 87 3f
       0.93422633 1.0115836 1.005352 1.0604522
000190 a3 c5 73 3f 0b a9 6f 3f 3d 98 73 3f f5 ce 76 3f
       0.95223445 0.93617314 0.9515417 0.9640954
0001a0 49 e3 79 3f 45 66 81 3f dd 5e 83 3f f8 16 7f 3f
       0.97612435 1.0109335 1.0263325 0.9964442
0001b0 20 ba 78 3f 87 41 83 3f df 43 81 3f 8f 69 7b 3f
       0.97159004 1.0254372 1.0098838 0.98207945
0001c0 bd a0 79 3f a3 a5 75 3f d8 ab 7a 3f fc bb 84 3f
       0.9751089 0.95955867 0.9791846 1.0369868
0001d0 61 57 83 3f 39 78 74 3f 7a 4b 7a 3f a1 da 7d 3f
       1.0261041 0.95495945 0.9777142 0.99161726
0001e0 32 d0 82 3f 06 ff 76 3f d0 8e 7c 3f 9d bb 74 3f
       1.0219786 0.96482885 0.98655415 0.95598775
0001f0 a6 65 84 3f 5d fe 81 3f 6a e3 81 3f cc 5f 7e 3f
       1.0343521 1.015575 1.0147526 0.99364924
000200 0a 5b 82 3f 7b 34 7d 3f 90 da 7d 3f 6c ca 87 3f
       1.0184033 0.98908204 0.99161625 1.0608649
000210 3f f2 7a 3f 9d 2d 87 3f 9e 4d 75 3f e3 51 86 3f
       0.9802589 1.0560795 0.9582156 1.049374
000220 ef 21 79 3f ff ab 74 3f af 22 80 3f e0 e8 7e 3f
       0.97317404 0.95574945 1.0010585 0.9957409
000230 0e 13 7d 3f 59 09 82 3f 61 11 8e 3f 7c 59 75 3f
       0.988572 1.0159103 1.1099054 0.9583967
000240 77 af 76 3f 45 01 79 3f fa e1 7b 3f 2c e3 73 3f
       0.9636149 0.9726756 0.9839169 0.9526851
000250 32 3f 75 3f d5 a5 84 3f 4d d4 75 3f 9d 9e 80 3f
       0.95799553 1.0363108 0.9602707 1.0048405
000260 09 72 85 3f b0 46 80 3f 35 20 85 3f 5c 78 81 3f
       1.0425426 1.0021572 1.0400454 1.0114856
000270 5d 8d 7b 3f 7e f4 73 3f 95 c7 83 3f 79 17 8c 3f
       0.9826258 0.9529494 1.0295283 1.0944663
000280 2d bd 7e 3f fb d5 6d 3f 6f 6d 7a 3f 07 40 6c 3f
       0.9950741 0.92904633 0.9782323 0.922852
000290 ec 6a 70 3f 45 c2 8a 3f de bf 75 3f 34 9f 70 3f
       0.9391315 1.0840536 0.9599589 0.93992925
0002a0 f2 a6 91 3f 54 f9 70 3f be 05 70 3f d9 e5 73 3f
       1.1379073 0.94130445 0.9375876 0.95272595
0002b0 fb af 81 3f 0a b8 7b 3f af d8 7c 3f fa 9b 75 3f
       1.013183 0.98327696 0.9876813 0.95941126
0002c0 b9 12 7d 3f 68 83 76 3f f9 42 70 3f 9e 45 7f 3f
       0.98856694 0.9629426 0.9385219 0.997156
0002d0 6d dc 67 3f f1 c2 7c 3f c1 18 8c 3f 5f 17 7e 3f
       0.9057072 0.98734957 1.0945054 0.9925441
0002e0 fa 94 76 3f 2d 3e 80 3f 16 57 78 3f d8 c1 7e 3f
       0.9632107 1.0018975 0.9700788 0.9951453
0002f0 90 b1 77 3f 6a 49 74 3f a5 99 80 3f 46 2f 77 3f
       0.96755314 0.9542452 1.0046889 0.9655651
000300 2e 4a 83 3f 07 07 6a 3f 62 d6 73 3f 0a 94 7a 3f
       1.0257013 0.9141697 0.95249 0.9788214
000310 ac be 7b 3f 96 e8 78 3f 32 6d 6f 3f 8a ec 77 3f
       0.9833782 0.972299 0.93525994 0.96845305
000320 c8 34 76 3f ab 0b 78 3f 2f 7c 71 3f 6c 6b 70 3f
       0.9617429 0.96892804 0.94330114 0.9391391
000330 b1 0c 6e 3f 51 5f 81 3f 47 d9 85 3f 66 d0 82 3f
       0.92988116 1.0107213 1.0456933 1.0219848
000340 af 44 72 3f c4 02 7e 3f 24 3d 87 3f 6e cb 86 3f
       0.9463605 0.9922297 1.0565534 1.0530832
000350 8d a9 80 3f f9 e1 84 3f 27 50 83 3f 80 87 75 3f
       1.0051743 1.0381461 1.0258836 0.9590988
000360 ca 40 67 3f 54 f5 79 3f f6 64 84 3f 4c 48 82 3f
       0.90333235 0.97639966 1.0343311 1.0178313
000370 d4 03 70 3f 27 76 80 3f 07 49 81 3f 62 5d 89 3f
       0.9375584 1.0036057 1.0100411 1.0731623
000380 8e 00 7c 3f ee 2c 7a 3f de ee 7a 3f 68 37 7c 3f
       0.98438346 0.9772481 0.9802073 0.98522043
000390 3d ed 83 3f 48 77 88 3f 6f 41 7d 3f ca d8 74 3f
       1.0306774 1.0661402 0.9892797 0.95643294
0003a0 e7 e0 72 3f 3e f0 7a 3f 42 e7 80 3f 6c 31 79 3f
       0.94874424 0.9802283 1.0070574 0.97341037
0003b0 76 9f 69 3f e1 a5 83 3f e0 33 69 3f 47 ea 84 3f
       0.91258943 1.0284997 0.9109478 1.0383996
0003c0 a5 8b 72 3f dd 09 83 3f 03 9a 7c 3f 72 46 83 3f
       0.9474433 1.0237385 0.98672503 1.0255873
0003d0 28 48 73 3f 03 b4 83 3f c5 9e 80 3f e3 2e 7c 3f
       0.95031977 1.028931 1.0048453 0.98509043
0003e0 64 d9 7e 3f 02 16 86 3f a9 86 79 3f 30 a2 71 3f
       0.9955046 1.0475466 0.974711 0.94388103
0003f0 bc 5b 77 3f 06 f1 7c 3f 81 01 66 3f 05 f0 76 3f
       0.9662435 0.9880527 0.89846045 0.9645999

net.1.bias f4 [512]
000000 14 87 1f bd d0 e2 90 bd 01 68 e4 3c bb 20 bb 3d
       -0.03894718 -0.07074511 0.027881624 0.09137102
000010 5c 27 96 3c 06 5b bb bd 77 7d 99 bc 11 a1 d2 bc
       0.018329315 -0.09148221 -0.018736584 -0.025711568
000020 f4 26 cf bc a8 38 e8 bd d0 b2 06 3d 31 c4 6a bd
       -0.025287129 -0.11338931 0.032885373 -0.05731601
000030 fe 5c 9c bd 4a 77 87 3c e7 66 81 bd 87 6a 3e 3d
       -0.07634924 0.016536374 -0.06318455 0.04648831
000040 d3 ac 0d be d4 4a 9b 3c ae 12 38 be e2 4f ff 3c
       -0.13835458 0.01895658 -0.17975876 0.03116602
000050 3b 2c 97 bc 8d d5 9e bc 9d 2a 30 3c 5a 03 d7 bb
       -0.018453708 -0.019388938 0.010752347 -0.006561679
000060 34 57 79 bd 8a d8 78 bb 85 b8 56 3d c6 a7 90 bc
       -0.06087418 -0.0037970864 0.052422065 -0.017658126
000070 c9 29 89 3d 9b 23 83 3d 73 27 41 3d d5 6c 48 bd
       0.06697423 0.064032756 0.047156762 -0.048931915
000080 b3 cb d1 bc 16 d5 f6 bc ed a1 be bd fc 49 40 bb
       -0.025609827 -0.030130904 -0.09308229 -0.0029340973
000090 28 20 1c 3d c7 ac 83 bd 33 aa 5f bd c0 f6 02 bb
       0.038116604 -0.06429439 -0.054605674 -0.00199835
0000a0 39 ee d1 bd 64 4c 53 bb dd e7 83 bd db d0 99 bd
       -0.102505155 -0.0032241577 -0.06440709 -0.07510539
0000b0 32 aa 46 be 80 d8 02 be 48 ef 3e bd 71 60 b6 bd
       -0.19400862 -0.127779 -0.046614915 -0.089051135
0000c0 4e ad 8e be bd aa 92 3d d1 79 c6 bd 13 40 fc bd
       -0.27866596 0.07161472 -0.096912034 -0.12316909
0000d0 83 93 04 be fd 6f b1 bc 0a 8a e6 3c 0f 88 df bc
       -0.12946896 -0.021659845 0.028141994 -0.027286557
0000e0 5d aa 37 be 6c 07 db bc 28 71 26 b9 a0 7f 0c be
       -0.17936082 -0.026736937 -0.00015873148 -0.1372056
0000f0 f8 08 54 be c6 88 11 bc 12 85 bd 3c 6b 3c 9f bd
       -0.20706546 -0.008882707 0.023134742 -0.07775196
000100 4c 5e 32 be 0f 9f eb bc b2 04 9a 3c d2 d6 a4 3d
       -0.17418784 -0.028762368 0.018801067 0.08048786
000110 ff 66 9f bd 22 78 10 bd e6 85 04 3e ac f0 ea 3c
       -0.07783317 -0.035270818 0.12941703 0.028679214
000120 ad 0a bd bb be 7f e3 bc 6b 20 87 3d eb 9e 1a bd
       -0.005769095 -0.027770873 0.0659798 -0.037749212
000130 72 d6 06 be cd 39 61 3c 61 04 1b bd 9d 4e 01 be
       -0.13167742 0.013746691 -0.037845973 -0.12627645
000140 5a 94 39 be 10 6e 5c bd 07 ce a3 3a 1b da c0 bd
       -0.18122998 -0.0538159 0.0012497314 -0.094166
000150 c9 75 75 3d 4a 7e c2 bc d5 b1 89 bd 1b b3 03 bd
       0.05992678 -0.02374186 -0.06723372 -0.03215323
000160 8b 7e e5 bc 9f a0 35 3d 2c a7 64 bc 97 76 1a be
       -0.028014442 0.044342633 -0.0139558725 -0.15084301
000170 51 cc 80 3d 50 00 07 bd 2d f1 b9 bc b9 c0 04 3d
       0.0628897 -0.032959282 -0.02269801 0.032410357
000180 06 83 16 bd 79 a2 52 3b d0 b3 59 bc e1 da 87 bd
       -0.036746047 0.0032140298 -0.0132875 -0.06633545
000190 ef 95 71 3c 66 b1 54 be cd ca 01 3c c4 55 0a bd
       0.01474522 -0.20770797 0.007921887 -0.0337732
0001a0 a5 6a 18 bd 4f aa 19 bc 2e de 27 bc 1e 7b 51 3d
       -0.03721108 -0.009378984 -0.010245843 0.051142804
0001b0 aa 99 ae 3d 7a 69 7f 3d f0 f7 5c 3d 3e d7 1b bd
       0.08525403 0.06235645 0.05394739 -0.038047068
0001c0 9b 6c 53 bd 6a b6 c4 3c da 02 d2 bd e2 44 dc 3c
       -0.051617246 0.024012763 -0.1025445 0.026888315
0001d0 16 67 47 3d e0 21 72 3b 24 ee a5 3b 9a cd cb 3b
       0.048682295 0.003694646 0.005063789 0.006219578
0001e0 c5 bb 28 bd 80 fd 84 bd ff 31 1e be 23 01 ae bd
       -0.041194696 -0.06493664 -0.1544876 -0.084963106
0001f0 4a af 59 3a bf fa 50 3d 11 d7 3d bb d2 f5 13 3d
       0.0008304013 0.05102038 -0.00289673 0.036123104
000200 e7 c1 93 3c fa 0c 26 bd 54 71 c4 bd 10 a2 27 3d
       0.018036796 -0.04053972 -0.09591928 0.04092604
000210 8c aa 5c 3d 48 74 c4 3d 74 7a bc bd 18 eb b7 3d
       0.053873584 0.095924914 -0.092030436 0.089803874
000220 a0 dc e7 bc 3b 9c 9f bd 7c 79 8e bd 2a 04 98 bb
       -0.028303444 -0.077934705 -0.06956765 -0.0046391683
000230 24 d5 83 bd 20 6c ab 3d fa 33 6a 3d 25 40 b2 bd
       -0.06437138 0.083702326 0.057178475 -0.08703641
000240 1d c5 79 bc 56 7a 9a bd 61 9e 07 be 0b 20 a8 bc
       -0.015244749 -0.07542865 -0.1324401 -0.020523092
000250 b7 71 ae 3b d5 b9 90 bd 6d 11 2a 3d a4 cf 11 3c
       0.0053236145 -0.07066695 0.041520525 0.008899603
000260 9a 7e df 3c f7 e7 45 bc 15 39 e6 bc 6d 84 f2 bd
       0.027282048 -0.0120792305 -0.02810339 -0.118416645
000270 2e b2 af bd 6d d5 25 be 98 3b 3d 3e c1 7d 5e 3e
       -0.08578907 -0.16194697 0.18479764 0.21727659
000280 95 e4 2c 3c aa 3c 31 bd 90 15 0b bd 95 59 51 bd
       0.010552545 -0.043270744 -0.03395611 -0.051110823
000290 7b 0e 8c bd 9b 10 13 3d 0e 2c be 3c f3 da ab bd
       -0.068386994 0.035904508 0.023214366 -0.083913706
0002a0 a8 38 76 3d 38 79 bc bd 77 11 df ba 20 38 9e bd
       0.060112625 -0.09202808 -0.0017018755 -0.07725549
0002b0 db b8 a2 bc 7d ba 82 bc 59 97 3e bc 53 f1 01 be
       -0.019863537 -0.015958065 -0.011632764 -0.12689714
0002c0 34 35 06 bd 18 35 de bd 37 05 2d bd 97 44 14 3e
       -0.032765582 -0.108499706 -0.0422413 0.1447929
0002d0 9e 59 d6 bd cf 4d f5 bc 0e c3 31 3d 04 26 eb 3c
       -0.10466312 -0.029944329 0.04339891 0.02870465
0002e0 70 92 62 bd 3c b6 f5 3c 96 15 61 3b eb 1f c5 bc
       -0.055315435 0.029994123 0.0034345142 -0.024063071
0002f0 11 2f 1c 3d f5 17 5f 3d 3e e6 98 bd c4 f6 ba 3c
       0.038130824 0.054466207 -0.0746579 0.022822745
000300 f8 56 7d 3c 95 f9 97 bd 72 93 89 bd ff 3d 0d 3d
       0.0154626295 -0.07420651 -0.06717576 0.034482952
000310 1d ee 3b 3c 90 ef cd bd 7f df f5 ba 9d db 07 be
       0.011470345 -0.100554585 -0.0018758624 -0.1326737
000320 26 0c fb bb c5 04 d1 bd f3 a5 ed bb 37 5b fc bb
       -0.0076613603 -0.10205988 -0.0072524487 -0.0077013033
000330 fa 01 e3 bd c9 15 94 bc 59 16 bb 3c 18 b4 d8 bb
       -0.110843614 -0.018076794 0.022837805 -0.0066132657
000340 50 2f b9 bd 99 1c 6e bd 0c 5d 8a 39 af 43 3e 3d
       -0.09042227 -0.05813274 0.00026390736 0.046451267
000350 ac 59 0e bd 46 1f cc 3c 4f c6 a1 3c 28 75 bf bd
       -0.034753487 0.024917256 0.019747881 -0.09348518
000360 75 71 fd bd 19 83 c1 bc a3 20 2b 3c 52 6b c4 bc
       -0.12375156 -0.023622083 0.010444793 -0.023976956
000370 8e 6f da bd 14 e4 a0 bb a9 5e e1 3d 63 8e 12 bc
       -0.106658086 -0.0049100015 0.11004383 -0.00894508
000380 f7 7a 7d 3d 85 07 cb bd d1 51 0a 38 5e ef 8e 3d
       0.061884847 -0.099135436 3.297796e-05 0.069792494
000390 d2 4e 9e 3d 38 ff 60 3d 5f 42 26 bd 9b 8b d4 bd
       0.077298775 0.054930896 -0.04059064 -0.1037819
0003a0 73 8f 7e bd cf 66 82 3d 44 90 36 3d 2a 06 a6 bd
       -0.062148523 0.063672654 0.044571176 -0.081066445
0003b0 1b 96 73 be 8c 86 c1 3d 36 cd 1e be 0a c8 9a 3d
       -0.2378773 0.09449491 -0.1550797 0.07557686
0003c0 7c f1 43 bd d8 c4 6a bd 74 e1 dc 3c 29 45 ac 3d
       -0.04783772 -0.05731663 0.026962973 0.08411629
0003d0 76 0a c1 bd 0f c5 e8 3b 51 99 10 bd 97 2a 64 bd
       -0.094258234 0.0071035693 -0.035302464 -0.05570468
0003e0 ea 93 3e bd c5 83 32 bd f6 38 68 3c 49 87 d7 bd
       -0.04652778 -0.043582696 0.014173737 -0.105238505
0003f0 0f 13 67 bd 6f 22 89 3b e2 33 d4 bd 41 3e f5 bc
       -0.05641466 0.004185013 -0.10361458 -0.029936912

net.1.running_mean f4 [512]
000000 97 c0 8a bd 81 ff 62 be 16 e2 41 3e 72 cf 0f 3d
       -0.06775015 -0.2216778 0.18933901 0.035109945
000010 50 dc 66 3e 5b 61 e9 3e 1e f0 c7 be ca e8 bb bd
       0.2254498 0.4558209 -0.39050382 -0.0917526
000020 72 7f c1 3e f7 44 72 3e bb ae 41 3e 8f 7c d8 3d
       0.37792546 0.2365912 0.1891431 0.10570633
000030 2e 16 0c bf 75 55 05 bf 21 8d 9c 3e ec b6 2e be
       -0.54721344 -0.5208352 0.30576423 -0.17061967
000040 d6 ab 02 3e 0c e9 ae bd 64 db 04 3f d2 ea 03 bd
       0.12760863 -0.08540544 0.51897264 -0.032206364
000050 f7 7a fa 3d e9 4d 12 be ae 6d ac be 29 83 ae 3e
       0.12230485 -0.14287533 -0.3367743 0.34084442
000060 14 a8 09 3e 20 b2 99 3d 70 a2 d3 3d 52 f3 76 be
       0.13443023 0.07504678 0.10333717 -0.24116257
000070 ac d5 c3 bc 37 be bf be 83 bf bb 3e 2e 75 80 3e
       -0.023905598 -0.3744981 0.3666955 0.250894
000080 6c 98 72 3e b8 c3 d6 3d 7b df a8 be 85 b4 df bd
       0.23690957 0.10486549 -0.32983002 -0.10923103
000090 75 43 b8 3e b1 59 23 3e 0b a8 39 bd f1 96 52 3e
       0.35988966 0.15952183 -0.045326274 0.20565392
0000a0 45 53 3b be 6c 11 8a 3e 3e 4c 4c be 98 c2 29 be
       -0.18293484 0.26966417 -0.19950959 -0.16578138
0000b0 1b c9 df bd d6 31 e7 be 7e 47 05 be af 5d 71 be
       -0.1092703 -0.4515521 -0.13015553 -0.23570894
0000c0 5a 43 5d be 2f e4 af bd 72 52 08 bf 6d cf 85 3e
       -0.21607724 -0.085884444 -0.532508 0.26134816
0000d0 7f 55 12 bf 35 41 8b be a8 18 6c be c9 c1 c6 3d
       -0.57161707 -0.27198187 -0.2305628 0.0970493
0000e0 46 65 71 3e c9 17 19 3e 6c 3b ab 3d 5a be 37 3d
       0.23573789 0.1495048 0.08360943 0.044859268
0000f0 0b d7 7a be fb ae 0e be 2b 62 9e 3c 1c e4 b6 3e
       -0.24496095 -0.13933937 0.01933392 0.3572091
000100 ec 22 65 3d 44 4e 41 3e ca 79 9d 3e 29 f1 ba be
       0.055941507 0.18877512 0.3075698 -0.36512116
000110 f9 a5 d9 3e c8 b2 bd bd 2a 2e c2 3e 6a 66 01 bd
       0.4250944 -0.092626154 0.37925845 -0.03159181
000120 cc 2a d7 3b 7a d4 0b 3c 56 f4 ae 3d 02 4e c7 be
       0.006566381 0.008534545 0.08542697 -0.38926703
000130 2d 52 6e 3f 28 7f 41 be 2e 80 02 be 19 27 5c 3e
       0.9309414 -0.18896163 -0.12744209 0.2149929
000140 f4 a3 94 be b2 ce 44 3e 77 ac 78 be f3 9c 86 be
       -0.29031336 0.19219473 -0.2428454 -0.26291618
000150 f8 41 fc bc b1 05 d6 3b ff 98 48 be 93 0d 7e bd
       -0.030793175 0.00653144 -0.19589613 -0.062024664
000160 7b 6e 9f be 61 f4 12 be d4 4a e3 3e 3c b5 54 bd
       -0.31138977 -0.14351036 0.44393027 -0.05193065
000170 4c 91 84 be 80 ef fe be 45 c7 c5 be 82 ea f9 bc
       -0.25892103 -0.497921 -0.38628593 -0.03050733
000180 24 7f 33 3e 99 3c d8 be a1 27 75 be e0 ec 53 3e
       0.17528969 -0.42233732 -0.23940898 0.2069583
000190 c2 e2 37 3f cb 69 87 3e b5 fa 4f be a3 79 21 3d
       0.7183038 0.264479 -0.20310481 0.039422642
0001a0 55 81 6d bd 9a f4 b0 be b9 31 d0 be 96 03 ea 3d
       -0.05798467 -0.34561616 -0.40662935 0.11426465
0001b0 86 7a 00 3f 46 81 87 bd 82 ff 2b be 77 60 5c bd
       0.50186956 -0.06616454 -0.16796687 -0.053802934
0001c0 f9 2f d6 bd fe cd 8a 3e 68 d1 9d be 81 94 d4 3e
       -0.10458369 0.27110285 -0.30823827 0.4151955
0001d0 0b 5e 37 3e 60 c2 d2 bc a7 20 af bd 10 f7 da 3d
       0.17906968 -0.02572745 -0.0855115 0.10691655
0001e0 2e d8 cb be f4 c1 96 bd 08 af 07 3f 8e 0a 97 bd
       -0.3981337 -0.073612124 0.5300145 -0.0737506
0001f0 6a 7f 7b be 71 d5 0e 3e 42 fd 9f bd 6d 3c 7f 3e
       -0.24560323 0.13948609 -0.07811977 0.24925394
000200 37 df 28 3e 16 a4 00 3e bf 17 8b bc cc fe d1 be
       0.164914 0.12562594 -0.016979096 -0.41014707
000210 ff 28 f6 be 1a b6 4f 3e e3 a2 08 be cd 70 8d 3c
       -0.48078153 0.2028431 -0.13343386 0.017265702
000220 05 c3 8d 3e 98 e4 c1 bd 73 05 99 bb 86 44 08 bf
       0.2768785 -0.09467429 -0.004669839 -0.5322956
000230 5d f0 1d 3e 08 54 47 bd 3f c4 86 3d 26 f4 de be
       0.15423723 -0.048664123 0.065804 -0.43545645
000240 24 1e 78 3e 7a cb e1 be 83 a1 ab 3d a3 7a 00 be
       0.24230248 -0.44100553 0.08380415 -0.12546782
000250 69 8d 1f 3e c0 cb 68 3e ba 2d 5e be 0b 0e e9 bd
       0.15581287 0.22733974 -0.21697131 -0.113796316
000260 a8 15 ad 3d 65 c3 09 3e 51 f8 e3 3e a4 f0 9a 3e
       0.08451396 0.13453443 0.44525388 0.3026172
000270 a7 d3 63 be dd ca a1 3d 19 13 cc 3e 8b c1 94 3e
       -0.22248708 0.07900021 0.3985832 0.29053912
000280 4a 3c 26 3e 80 af cd 3e 85 0f de 3b d7 1e 3c 3e
       0.16233936 0.40172958 0.0067767524 0.1837114
000290 dd 37 d0 bd 88 96 02 be 15 3b 62 be 76 a3 f9 be
       -0.10166905 -0.12752736 -0.2209285 -0.48757523
0002a0 c7 88 5e be 73 37 04 be 4e f9 ee bd b9 8d e6 3d
       -0.21731864 -0.12911777 -0.11668645 0.112575
0002b0 ea 0d a8 3e 9f 2b 5b bd 8e bb 8c be f4 59 2b 3e
       0.32823116 -0.053508397 -0.27486843 0.16733533
0002c0 74 9e a4 be 7d b2 8e be 1b 93 2d bf 32 49 05 3f
       -0.3215214 -0.2787055 -0.6780259 0.5206481
0002d0 77 e1 1f be 4b e3 02 bf 5d 94 35 3e 09 93 25 3f
       -0.15613352 -0.5112807 0.17732377 0.6467748
0002e0 40 f0 ed 3e 9c dc ad 3e 8c fe b4 3e 12 ff d0 3d
       0.4647236 0.33957374 0.35350454 0.10204901
0002f0 37 87 91 bd d0 ac b7 be 69 65 5b 3f db 24 b5 be
       -0.07105868 -0.35874033 0.85701615 -0.3537968
000300 98 c6 6f bd 7e e3 a7 bc 97 9d 1d 3f c3 49 fb 3e
       -0.058539003 -0.020494219 0.6156859 0.49079713
000310 67 ea 7b 3c 61 bd d1 bd e4 83 93 3d e3 66 0b 3e
       0.01537571 -0.10241199 0.072028905 0.13613467
000320 6c 77 7b 3e ce a4 44 be 3c 73 dd bd 5c 24 c5 3d
       0.24557275 -0.19203493 -0.10812995 0.096260756
000330 f9 11 28 3e 16 0f 06 3d d3 3d c1 be 52 10 fa 3e
       0.16413106 0.03272923 -0.3774248 0.48840576
000340 81 b2 82 bd 44 8e be 3e 78 c8 b6 bd 75 d0 cf 3d
       -0.06381703 0.37217915 -0.08924955 0.10147182
000350 cf b9 42 be 2c 18 4e bc 3b 05 2c bf 8b 64 9a 3d
       -0.19016193 -0.012579005 -0.6719548 0.07538708
000360 67 8a f7 bd 18 29 fc 3d d7 b1 bf bc e2 46 83 be
       -0.12086945 0.123125255 -0.02340023 -0.25640017
000370 3a e5 5f be d0 82 0d be 34 61 de bd dd 32 05 3d
       -0.21864787 -0.13819432 -0.10858384 0.03251921
000380 c8 74 ec 3e 38 30 7f 3e 9e f1 29 3f d3 46 f9 bd
       0.46182847 0.24920738 0.66384304 -0.12171712
000390 de 37 5e be e2 9a fa bd 40 37 23 3f da ab d8 3c
       -0.21700999 -0.12236573 0.6375618 0.026449133
0003a0 a8 01 14 bf 70 aa 7b be 6b 51 e9 3c 5a fa ba be
       -0.5781503 -0.24576735 0.028481206 -0.36519128
0003b0 05 1d f0 3e 00 3e 47 be 6d 65 17 3f a3 01 5b 3e
       0.4689714 -0.19457245 0.5913914 0.21387343
0003c0 2f e7 a7 be b7 73 fa 3e 6f 1d a2 3e 51 ca 22 3e
       -0.32793567 0.48916408 0.3166308 0.1589749
0003d0 ab 08 49 3d d1 90 eb 3e 50 28 e2 bd e5 61 a3 be
       0.049080532 0.46008924 -0.11042845 -0.31910625
0003e0 4f 9b a5 be 1b 7f be be 22 ed 80 3e 79 aa 09 3f
       -0.32345054 -0.3720635 0.25180918 0.53775746
0003f0 0d 0d bb be de da f3 3e d4 1a 3c 3e 8f 89 0f ba
       -0.36533394 0.4762792 0.18369609 -0.0005475515

net.1.running_var f4 [512]
000000 09 ed 2d 3d 3e 61 0c 3d 65 04 fb 3c b8 88 04 3d
       0.042462382 0.034272425 0.030641744 0.032356948
000010 3e a7 e3 3c af eb fa 3c 33 a0 15 3d c7 86 0b 3d
       0.027789708 0.03062996 0.03652973 0.03406408
000020 cd 7f 13 3d 35 02 d1 3c 48 1f e4 3c 11 35 e5 3c
       0.036010552 0.025513748 0.027846947 0.027979406
000030 99 c4 fb 3c f5 9d 24 3d 5e 0a 10 3d e0 66 10 3d
       0.030733394 0.040189702 0.035166137 0.03525436
000040 8b 8c ec 3c cb c4 09 3d f4 04 de 3c 0c 17 ff 3c
       0.02887561 0.033634942 0.027101971 0.03113892
000050 00 be 0c 3d f0 1e 0d 3d 2e b0 0d 3d 28 9f 1a 3d
       0.034360886 0.034453332 0.034591846 0.03774944
000060 8b f6 e8 3c 01 6e 0d 3d 41 bf ff 3c b2 04 05 3d
       0.028437873 0.034528736 0.031219127 0.03247518
000070 94 06 15 3d 9b 8b e8 3c ba c3 01 3d 46 2a f4 3c
       0.036383227 0.028386882 0.0316808 0.029805314
000080 a5 8f ee 3c e9 cc d3 3c 8f f4 11 3d 3b a0 c2 3c
       0.02912123 0.025854545 0.03563362 0.023758044
000090 0b bb c6 3c 0c 0b 1f 3d 1a 49 fc 3c 93 0c f8 3c
       0.02425911 0.038828894 0.030796576 0.030279433
0000a0 ab ae 0a 3d 29 fb 01 3d 77 40 05 3d d2 2d f6 3c
       0.033857983 0.031733666 0.03253218 0.030051146
0000b0 f4 a4 15 3d ed ff 18 3d d9 7b 09 3d 22 c5 cc 3c
       0.036534265 0.037353445 0.033565376 0.024996344
0000c0 fa 3c 29 3d 46 cd 0e 3d 4d 17 e9 3c 75 b8 13 3d
       0.041317917 0.034863733 0.028453493 0.036064584
0000d0 e1 72 08 3d a7 11 04 3d 91 b0 1d 3d 73 3d 1c 3d
       0.033312682 0.032243397 0.038498465 0.03814454
0000e0 4b 6f 01 3d 32 f7 11 3d a6 d2 e2 3c be 00 1c 3d
       0.031600278 0.035636134 0.027688336 0.038086645
0000f0 15 fb d6 3c 39 d2 04 3d e4 b2 07 3d cc da 13 3d
       0.026242772 0.032427046 0.033129588 0.036097333
000100 86 22 fc 3c cb 6b 0a 3d 3b 16 d1 3c f7 99 c0 3c
       0.03077818 0.033794206 0.025523296 0.023510916
000110 73 bf 11 3d 8a 97 08 3d 12 af 16 3d d7 21 e2 3c
       0.03558297 0.033347644 0.036788054 0.027604027
000120 e7 53 ef 3c 03 75 de 3c 10 df d3 3c e3 bd 09 3d
       0.029214812 0.027155405 0.0258632 0.033628356
000130 cd be 0f 3d 5c 9f 1d 3d 3b 2a b9 3c 2b 13 02 3d
       0.03509407 0.038482055 0.022603145 0.03175656
000140 8b 04 e1 3c eb 32 16 3d 83 e8 f0 3c 6e fa e4 3c
       0.027467987 0.036669653 0.029407745 0.027951445
000150 ea c9 09 3d 09 03 e2 3c b9 fb ce 3c 8b 39 04 3d
       0.033639826 0.027589338 0.025266515 0.03228144
000160 d3 d2 07 3d fe 17 0f 3d 3b 15 0c 3d 8d bc e6 3c
       0.033160042 0.03493499 0.034199934 0.02816608
000170 e2 f7 0c 3d 56 08 e9 3c fa a9 e9 3c 02 be fb 3c
       0.034416087 0.028446358 0.028523434 0.030730251
000180 0c 66 19 3d 99 b7 06 3d 96 ef 2e 3d 42 c4 00 3d
       0.037450835 0.032889936 0.042708956 0.031437166
000190 91 ca 20 3d 97 d8 03 3d d4 36 16 3d 0d b8 e7 3c
       0.039255682 0.032188978 0.036673382 0.028286004
0001a0 6c 99 2f 3d e0 c2 fc 3c 82 2c 12 3d a1 c4 d4 3c
       0.042870924 0.030854642 0.035686977 0.025972666
0001b0 6b 8f 2b 3d b4 ef 0c 3d 77 f9 16 3d b7 cb 0d 3d
       0.04188482 0.034408286 0.036859002 0.034618106
0001c0 94 11 f9 3c 29 0e 05 3d 85 30 02 3d b0 79 0e 3d
       0.03040389 0.032484207 0.031784553 0.03478402
0001d0 81 65 1d 3d 8e 71 18 3d fd c5 21 3d 9a 17 c8 3c
       0.03842688 0.03721767 0.039495457 0.024425317
0001e0 ff 06 12 3d 45 1f 0e 3d bc 07 12 3d 69 c9 c3 3c
       0.035651203 0.03469779 0.035651907 0.02389975
0001f0 e1 23 03 3d f9 9c c1 3c 35 05 04 3d 66 ae 08 3d
       0.03201664 0.02363442 0.03223153 0.033369444
000200 cf 92 e8 3c 22 1c 14 3d 57 b1 fe 3c f5 e3 fc 3c
       0.028390316 0.036159642 0.031090422 0.030870417
000210 12 2b f1 3c b1 0e 05 3d 8c 38 24 3d c6 d0 e4 3c
       0.029439483 0.032484714 0.04009299 0.027931582
000220 2f 74 19 3d c2 f0 12 3d 90 b2 0f 3d dd ac 0e 3d
       0.037464317 0.035874136 0.0350824 0.034832824
000230 06 0b 0f 3d 3a 19 f6 3c a6 59 ef 3c 1c 99 fe 3c
       0.034922622 0.030041326 0.029217552 0.031078868
000240 8e c7 ef 3c 96 74 1e 3d ea bf 2a 3d 11 32 00 3d
       0.02926996 0.038685404 0.04168693 0.031297747
000250 f0 08 14 3d 2b dd 05 3d 52 79 d7 3c 5b f1 d8 3c
       0.036141336 0.032681625 0.026302967 0.026482275
000260 46 4e f5 3c 38 e0 b9 3c e6 b3 e6 3c af 37 f8 3c
       0.02994455 0.022689924 0.028161954 0.03029999
000270 38 1b cc 3c 2a 3b f5 3c dc 77 d0 3c 6d fa 02 3d
       0.024915323 0.029935438 0.025447778 0.031977106
000280 89 1e 19 3d 5c 2c 07 3d 72 45 1e 3d 68 18 15 3d
       0.037382636 0.03300129 0.038640447 0.03640023
000290 ec 1c fa 3c 24 9e e4 3c 80 58 e4 3c c0 8f db 3c
       0.03053137 0.027907439 0.027874231 0.026801944
0002a0 2b e6 ea 3c 46 82 e0 3c 3c f8 e6 3c cc bf 13 3d
       0.028674206 0.02740587 0.02819454 0.036071584
0002b0 6b e1 fc 3c 24 06 f3 3c c8 7e e9 3c 5f 26 c5 3c
       0.030869206 0.029666014 0.028502837 0.024066148
0002c0 d6 55 ec 3c 72 fc 0d 3d b0 9d ed 3c 19 10 11 3d
       0.028849524 0.03466458 0.029005855 0.035415743
0002d0 74 0b 11 3d d3 c7 2a 3d 82 fc f4 3c 22 bf 0f 3d
       0.035411313 0.041694473 0.029905561 0.035094388
0002e0 43 46 02 3d e9 f7 08 3d 0b 05 10 3d f4 31 f7 3c
       0.031805288 0.03343955 0.03516106 0.030175187
0002f0 6a 2f d7 3c 9d f3 ec 3c c7 bc d2 3c 2c e6 0d 3d
       0.026267726 0.028924758 0.025724782 0.034643337
000300 4b 65 f3 3c 79 fe da 3c b0 5b 2d 3d 0f 4b 0b 3d
       0.029711386 0.02673267 0.04232377 0.03400713
000310 44 73 b7 3c 52 9f 0e 3d 4c 5a 22 3d 47 ce 20 3d
       0.02239383 0.03481991 0.039636895 0.03925922
000320 6d ac 0b 3d ca 89 05 3d d0 c0 d9 3c ed 90 f3 3c
       0.034099985 0.03260211 0.026581198 0.029732192
000330 6b 9b f7 3c 61 22 08 3d e1 2c 0a 3d 7c c5 f8 3c
       0.030225476 0.03323591 0.033734206 0.030367605
000340 da fe e2 3c 08 e2 03 3d a7 15 fd 3c eb 97 11 3d
       0.027709413 0.032197982 0.030894114 0.03554527
000350 1a 98 eb 3c a7 f6 f2 3c dc a3 12 3d a3 3b e9 3c
       0.028759051 0.029658629 0.0358008 0.02847082
000360 f6 1b f2 3c bb 13 02 3d 68 ae 05 3d da 95 07 3d
       0.029554348 0.031757098 0.03263703 0.033101894
000370 4d 7a 24 3d 3a 33 d3 3c 46 6f f5 3c c9 2f d4 3c
       0.040155698 0.025781263 0.029960286 0.025901692
000380 db 6b ce 3c 6f c3 fa 3c d2 e0 0c 3d 68 82 19 3d
       0.025197914 0.030610768 0.034394093 0.03747788
000390 11 a2 03 3d 39 e1 0f 3d 35 04 02 3d 68 79 e4 3c
       0.03213698 0.0351269 0.031742293 0.027889922
0003a0 fe 0a 0e 3d 0c c0 2e 3d ad 5e 0b 3d b2 8d ed 3c
       0.03467845 0.04266362 0.034025837 0.02899823
0003b0 f9 b3 ec 3c 49 cb fd 3c 40 b6 11 3d d0 38 00 3d
       0.028894411 0.030980723 0.035574198 0.03130418
0003c0 12 18 28 3d 15 a8 df 3c 22 42 29 3d 6f 09 dd 3c
       0.04103858 0.027301827 0.041322835 0.026982037
0003d0 34 4f ff 3c 22 46 18 3d c9 45 28 3d 72 1a ef 3c
       0.031165697 0.03717626 0.041082177 0.029187415
0003e0 00 61 17 3d 97 dc 01 3d a7 53 d1 3c 5f 50 01 3d
       0.03695774 0.03170451 0.025552584 0.03157079
0003f0 3c b3 d8 3c 89 3e d3 3c 0f 17 02 3d a3 50 16 3d
       0.026452653 0.025786655 0.03176027 0.036697995

net.3.bias f4 [512]
000000 2c e2 ed 3d d4 24 d6 3d 78 4c 46 bc fe 40 89 3c
       0.116154045 0.10456243 -0.0121031925 0.016754624
000010 63 6f 05 bd 6d 32 dd bc 67 b6 8f bc fa 41 eb bc
       -0.03257693 -0.027001584 -0.01754303 -0.028717984
000020 b7 94 09 3c 5d d2 48 3c 45 8a 91 3d ae 14 a5 bc
       0.008397273 0.012257186 0.07106451 -0.020151462
000030 73 d1 04 bc d3 c5 b8 3b 5d 7f b8 bc 1d 98 41 3d
       -0.008106577 0.005638817 -0.022521669 0.047264207
000040 76 3e 96 3c 6e a4 ed 3c b0 75 cb bc 6c c0 72 bc
       0.01834033 0.02900907 -0.024836391 -0.014816385
000050 9d 1c 8c bc ef 27 ce 3c a8 12 a9 3c f8 aa 2f 3d
       -0.017103488 0.025165526 0.020638779 0.042887658
000060 f4 11 78 3c e8 e8 06 3a 82 09 2f bc 6b 2a 4e bd
       0.015140999 0.00051464 -0.010683419 -0.05033342
000070 09 83 d4 3c 61 ca 88 bc 7a 7e 08 bb a5 54 e8 3a
       0.025941389 -0.016698064 -0.002082734 0.0017725421
000080 1c cf 52 3b 2e e0 15 3d 08 f0 fd 3b 87 4f 86 bd
       0.0032166904 0.036590748 0.007749561 -0.065581374
000090 b0 6c 6f 3c 5a 82 44 3d a3 71 8d bc 52 92 0c 3b
       0.014613315 0.047975875 -0.0172661 0.0021449518
0000a0 18 d7 86 3c ed 93 ca bd 75 9f 04 3d 26 dd 2e 3d
       0.016459987 -0.09891496 0.032378633 0.042691372
0000b0 e4 6f 9f 3d 59 5a a2 bc d4 df 87 bd 0a 51 40 3d
       0.07785013 -0.019818472 -0.06634489 0.046952285
0000c0 42 03 25 bd 51 06 21 bd 8a 4f f6 ba bd 69 1c 3d
       -0.04028631 -0.039312664 -0.0018792015 0.038186777
0000d0 8f 5a 54 3d 76 10 8f 3c b8 b9 bd 3c ac 7d ab bd
       0.051844176 0.017463904 0.023159847 -0.083735794
0000e0 14 09 52 3c 54 80 c9 bd 4a 4d 70 3b 8c f4 66 bc
       0.012819547 -0.0983893 0.0036667162 -0.01409639
0000f0 56 6d 2c bd aa 72 cb 3a ad cd d8 bc 42 e9 30 3c
       -0.04209646 0.0015521843 -0.026465261 0.0107978005
000100 b4 4b 28 bd d6 c8 af 3c b4 fe 30 bc f5 88 72 3d
       -0.04108782 0.02145807 -0.010802913 0.059212644
000110 41 6c b1 3b 75 67 a3 3d 42 d8 7d 3d 9a 2c fd 39
       0.005414516 0.07978717 0.061973818 0.0004828915
000120 7c ee ef 3b b1 62 8f 3b 0c 96 8b bd e4 5f d6 3c
       0.0073221307 0.0043757786 -0.068157285 0.026168771
000130 83 4a ac 3b c2 8c 92 3c dc 62 96 bc b5 f5 a1 3d
       0.005257906 0.017889384 -0.018357687 0.07908193
000140 8e ba 2d bd f6 72 19 3d 54 0a 00 bd 6e 85 a4 3a
       -0.04241424 0.03746315 -0.03125985 0.0012551972
000150 dd 6e f7 bb 4a 8d df 3c 6b 54 6e 3c e7 10 3f 3d
       -0.0075510577 0.027289052 0.014546494 0.04664698
000160 40 a5 2d bd 6c ef 21 3c 64 dc 70 3d 4b af 14 bd
       -0.042393923 0.009883743 0.05880393 -0.036299985
000170 77 e0 41 3d 2c cc b3 3b 34 59 f5 3c 7b 11 2e bd
       0.047333207 0.0054869857 0.029949762 -0.04249714
000180 7a b9 12 be 63 51 03 bb 8f 0e 3a bc db 48 29 bd
       -0.14328566 -0.0020037524 -0.01135601 -0.041329246
000190 3a 4b 29 3d d7 9b e8 bc 66 28 58 bd 48 3a 20 bb
       0.041331507 -0.028394623 -0.052772902 -0.00244488
0001a0 f4 6f ed bd 00 a9 83 3c 81 3d bb bc 88 b9 d0 bc
       -0.11593619 0.016071796 -0.022856476 -0.025479093
0001b0 e0 3b c0 3c f4 9c 41 3d 3c 35 85 bc 87 ca 0d bd
       0.02346605 0.047268823 -0.016260736 -0.034616973
0001c0 9a dc 96 bc 0f 34 dd 3c 29 f0 a6 bd 9e 28 e8 bc
       -0.018415738 0.027002363 -0.08151276 -0.02833968
0001d0 d0 fc 03 bd db f0 94 bd 85 31 d2 bc 29 2e 14 3c
       -0.032223523 -0.07272502 -0.025658378 0.009044209
0001e0 69 a4 75 bd 3f 3e 23 bd 27 11 9b bb 0f ef 2a bd
       -0.059971247 -0.039854284 -0.0047322693 -0.04173189
0001f0 fd e7 8a 3c 97 3d 44 bd 09 f5 ae 3d a6 a3 73 bd
       0.016956324 -0.0479103 0.085428305 -0.05948224
000200 39 4e e9 bc c8 a4 c5 bb e7 8a d6 3c bc 87 ad bc
       -0.028479682 -0.0060316063 0.02618928 -0.021182887
000210 a8 7e 62 bd 75 02 0f 3d 3a 99 ed 3c 45 2d e9 3a
       -0.05529657 0.034914453 0.029003728 0.0017789981
000220 e5 c2 8b 3d 34 ed 3a 3d 0c 43 32 3d aa 0a b8 bc
       0.068242826 0.04563637 0.043520972 -0.022466023
000230 84 10 b7 3b 3a 0f 37 3d f1 e3 9a bc e9 fe 42 3c
       0.0055866856 0.044692256 -0.018907519 0.011901596
000240 b9 ed 12 3d b3 2d 0d bc 28 d8 5a bd 28 47 ca 3c
       0.03587124 -0.008616853 -0.0534288 0.024692133
000250 00 a2 83 bd 41 de 8b bc d1 a2 81 bd 57 c4 55 bc
       -0.064273834 -0.017073752 -0.06329883 -0.013047299
000260 12 af f3 bb 08 0c 20 3d 25 db e2 3c b9 3c b1 3c
       -0.0074366415 0.039073974 0.027692387 0.0216354
000270 ee 9f 0e bd 43 3b a8 bd bb 09 ad 3b fb 6a f1 3c
       -0.03482049 -0.08214428 0.005280701 0.029469958
000280 21 f0 14 3d b6 e8 15 3d 8f 32 e1 bd 9c 4d 9f bb
       0.036361817 0.036598884 -0.109959714 -0.0048615467
000290 04 fd 1b bd e6 bb be bc 87 5b 5d 3d 03 41 01 bd
       -0.03808309 -0.023282956 0.054042365 -0.03155614
0002a0 1d 9c 89 bd 39 2c 83 bb 7a 2f 98 3c 8f 2c 02 bd
       -0.06719229 -0.0040030745 0.018577326 -0.031780776
0002b0 d7 b4 20 bd 8f c8 ee 3c 69 8a 0e bc 34 4a 68 bc
       -0.039234962 0.029148368 -0.008699992 -0.014177848
0002c0 e7 e5 af bc 5b 67 36 3d 35 e0 4b bd d3 f6 a7 3c
       -0.02147193 0.04453216 -0.049774367 0.020503437
0002d0 9b 39 12 3d 73 55 e8 bb 40 68 db bc 68 6f d2 39
       0.035699468 -0.0070902645 -0.026783109 0.00040137325
0002e0 1f 60 25 bd 01 1e 44 3c 8e e7 b8 bc 6f 53 90 3b
       -0.04037487 0.011970044 -0.022571351 0.0044044773
0002f0 20 7a c2 bd 08 f6 d5 3b f6 f6 21 3d dc cd 88 3d
       -0.0949595 0.0065295734 0.03954216 0.066798896
000300 f9 4b e1 3d b8 01 8b bc 2d 9d 64 bc 08 03 7a 3d
       0.11000819 -0.016968593 -0.013953489 0.061038047
000310 b9 cb 13 3c 31 4c ea bc fb 1f 3a bc 63 3d 91 bd
       0.009020739 -0.028600784 -0.011360164 -0.07091787
000320 03 0b 75 bc f4 51 19 3c 4b a1 78 3d 89 c7 49 3d
       -0.014956239 0.009357918 0.060700696 0.049262557
000330 a1 c7 6d 3d be d8 b0 3d 2e 34 0b 3d 5e 2b 1d bc
       0.05805171 0.0863509 0.03398531 -0.009592859
000340 d3 af fc 3c 9d 00 ac 3d 26 ac d4 3b 39 0a 61 3c
       0.030845558 0.083985545 0.0064902483 0.013735347
000350 ef c2 ef 3c 8e 83 6c 3d c5 fb 48 bc 98 2d 10 3d
       0.029267756 0.057742648 -0.012267058 0.03519973
000360 1b 0d de 3c c6 e9 5c bd b2 5e 95 bc 00 0d ad 3c
       0.027105859 -0.05393388 -0.01823363 0.021124363
000370 ad 36 94 3b 0c 11 09 bd 90 29 11 bd 25 62 85 bc
       0.0045231194 -0.033463523 -0.035440028 -0.01628215
000380 ac 8a 7f 3d 88 68 06 bd 9f 87 c3 bc 68 13 84 3d
       0.062388107 -0.032814533 -0.02386838 0.06449014
000390 3d 74 ad bc f7 2e 3f bc 4c 1b 4b bd 03 25 52 3d
       -0.02117359 -0.011668912 -0.04958658 0.05130483
0003a0 48 71 d3 bc ac 76 76 bc df 12 11 bc 43 6f ca bc
       -0.025810853 -0.015042942 -0.008854597 -0.024711257
0003b0 b3 13 e6 bb 9f b8 43 3d d4 64 e8 3c 9c 9a d6 bc
       -0.0070213913 0.04778349 0.028368391 -0.02619677
0003c0 83 aa 3a bd 8a 09 9b bd 05 00 8f 3c 9a 47 a7 bc
       -0.04557277 -0.07570179 0.017456064 -0.020419884
0003d0 1f 5b cd bb b7 7e f2 3c 63 33 ed bb 4e cc 3a bb
       -0.006266966 0.029601438 -0.007238792 -0.0028503123
0003e0 ea 1d 3b 3c 47 cb 63 bc 1d d3 29 3c b3 da 66 bd
       0.011420706 -0.013903446 0.010365275 -0.05636091
0003f0 2c 6a a2 3d e4 cd 38 3c 69 bb 5a 3d 65 a9 e3 3c
       0.07930407 0.011279557 0.053401385 0.027790735

net.4.weight f4 [512]
000000 ec 23 88 3f 9b 1e 82 3f f5 5d 7c 3f b0 7e 81 3f
       1.0635962 1.016559 0.9858087 1.0116787
000010 7f 51 83 3f 2e 24 8d 3f 7c ae 89 3f a6 ba 8e 3f
       1.0259246 1.1026666 1.0756373 1.115071
000020 a5 61 87 3f 1c cf 85 3f c6 d0 7f 3f 9a 8d 85 3f
       1.0576674 1.045383 0.9992794 1.0433838
000030 f1 d0 80 3f 99 0f 99 3f c8 3c 98 3f 4d b0 80 3f
       1.0063764 1.1957885 1.1893549 1.0053803
000040 78 3a 80 3f 19 cf 83 3f 35 99 7d 3f 29 f4 8a 3f
       1.0017843 1.0297576 0.990619 1.0855762
000050 ff 15 79 3f c5 ea 76 3f 50 6c a1 3f 13 f2 78 3f
       0.9729919 0.9645198 1.2611179 0.97244376
000060 3a c7 8a 3f b0 81 7c 3f 20 fe 82 3f 9b 35 82 3f
       1.0842049 0.9863539 1.0233803 1.0172609
000070 67 98 84 3f 63 be 80 3f db e4 82 3f 50 ab 84 3f
       1.035901 1.0058101 1.0226091 1.036478
000080 ba 4e 8e 3f 2b 23 8c 3f 38 06 8b 3f d3 fe 82 3f
       1.1117775 1.0948232 1.0861273 1.0234016
000090 3e 28 99 3f e4 c2 8c 3f 25 e5 84 3f eb ac 80 3f
       1.1965406 1.0996976 1.0382429 1.005277
0000a0 1e d6 82 3f 77 df 8c 3f ed 9e 88 3f a4 a2 83 3f
       1.0221593 1.1005696 1.06735 1.0284009
0000b0 ad 27 8c 3f 2f b7 86 3f 17 af 71 3f d3 07 8d 3f
       1.0949608 1.0524653 0.9440779 1.1018013
0000c0 aa f3 83 3f 62 78 83 3f 68 cb 85 3f ad 9d 7d 3f
       1.0308735 1.0271113 1.04527 0.9906872
0000d0 bf 5a 97 3f 39 9d 87 3f c0 89 83 3f 02 8c 84 3f
       1.1824569 1.0594856 1.0276413 1.0355227
0000e0 55 a1 7e 3f e3 24 70 3f 67 7f 7f 3f cd 5f 81 3f
       0.99464923 0.93806285 0.99803776 1.0107361
0000f0 dd 47 94 3f fe 2d 9a 3f 00 05 86 3f 30 12 82 3f
       1.1584431 1.2045286 1.0470276 1.01618
000100 c9 94 7c 3f 34 90 6a 3f 5d 4e 82 3f 4f aa 86 3f
       0.9866453 0.91626287 1.0180165 1.0520724
000110 50 98 80 3f d1 79 86 3f 16 cf 82 3f fa b1 87 3f
       1.0046482 1.0505925 1.0219448 1.0601189
000120 e5 4d 87 3f 30 3f 80 3f 68 59 81 3f 4e 9a 81 3f
       1.0570647 1.0019283 1.010541 1.0125215
000130 c9 e9 99 3f fe 0f 88 3f be a0 8a 3f 7e 4c 81 3f
       1.202447 1.062988 1.0830305 1.0101469
000140 e5 f2 84 3f 52 b2 82 3f e2 1d 88 3f 5b a0 80 3f
       1.0386626 1.0210669 1.063412 1.0048937
000150 79 19 84 3f 1b 51 77 3f a6 fb 81 3f af 83 81 3f
       1.0320274 0.9660813 1.0154922 1.0118312
000160 db 3a 83 3f bd db 99 3f bb de 92 3f bc da 7b 3f
       1.0252336 1.2020184 1.1474222 0.9838064
000170 52 a5 83 3f a9 14 63 3f 9f 43 82 3f fa b0 9f 3f
       1.0284827 0.887034 1.0176886 1.2475884
000180 71 c6 76 3f 41 a7 80 3f b4 69 9f 3f 23 d9 9f 3f
       0.9639655 1.0051042 1.2454133 1.248814
000190 22 bf 85 3f 93 79 87 3f 61 55 7c 3f 86 e5 6e 3f
       1.0448954 1.0583977 0.9856778 0.93318975
0001a0 10 de 89 3f c2 6c 97 3f e4 e0 89 3f 6a 38 8d 3f
       1.0770893 1.1830065 1.0771756 1.1032841
0001b0 41 14 80 3f 65 30 84 3f 41 43 75 3f 43 e4 86 3f
       1.0006181 1.0327269 0.95805746 1.053841
0001c0 9a 48 87 3f e9 d8 91 3f 34 21 87 3f a2 a7 83 3f
       1.0569031 1.1394321 1.0557008 1.0285532
0001d0 7c 74 85 3f e5 71 87 3f a2 01 83 3f 6e 9f 7d 3f
       1.0426173 1.0581633 1.0234873 0.99071395
0001e0 86 91 83 3f b8 9a 83 3f 49 37 89 3f 21 47 7e 3f
       1.0278785 1.0281591 1.0719997 0.99327284
0001f0 93 6c 84 3f 56 68 89 3f cd eb ae 3f 9b 80 89 3f
       1.0345634 1.0734966 1.3665711 1.0742372
000200 22 fa 87 3f 28 ee 80 3f c4 65 84 3f 8e 69 84 3f
       1.062321 1.007268 1.0343556 1.0344713
000210 96 5a a1 3f 55 75 84 3f 88 49 81 3f 1e 82 82 3f
       1.260577 1.0348307 1.0100565 1.0195959
000220 ce 3c 8c 3f 2c cf 89 3f e2 d5 88 3f 42 3e 89 3f
       1.0956056 1.0766349 1.0690272 1.0722125
000230 e3 64 8b 3f 63 ab 8c 3f b7 59 79 3f e4 22 84 3f
       1.0890163 1.0989803 0.9740252 1.0323148
000240 e0 28 85 3f 84 f6 81 3f a0 52 88 3f 15 dc 87 3f
       1.0403099 1.0153356 1.0650215 1.0614039
000250 5b a2 a3 3f f2 8b 82 3f dd 5e 99 3f 11 38 86 3f
       1.2783922 1.0198958 1.1982075 1.048586
000260 9e 7d 89 3f 3f c0 84 3f c7 d2 84 3f ed 19 92 3f
       1.074146 1.0371169 1.0376824 1.1414162
000270 c3 f6 90 3f e1 87 7a 3f 09 8c 7d 3f 7e 43 80 3f
       1.1325306 0.97863585 0.990418 1.0020597
000280 df 5a 8b 3f a1 93 80 3f 2a df 84 3f 17 1b 77 3f
       1.0887107 1.0045053 1.0380604 0.9652571
000290 eb 24 7d 3f 2b b0 70 3f dd 3e 87 3f 21 fd 86 3f
       0.9888446 0.9401881 1.0566059 1.0545999
0002a0 73 e5 73 3f 21 44 75 3f 96 7e 80 3f 99 19 84 3f
       0.95271987 0.9580708 1.0038631 1.0320312
0002b0 7b e2 87 3f e7 b5 87 3f 1e 09 7f 3f 64 ed 6c 3f
       1.0615991 1.0602387 0.99623287 0.9254973
0002c0 e5 b1 9e 3f fa 03 75 3f e7 31 81 3f f1 8b 82 3f
       1.2398039 0.9570919 1.0093354 1.0198957
0002d0 75 d2 a0 3f 36 c2 8e 3f 60 b7 80 3f c8 c0 76 3f
       1.2564226 1.1153018 1.0055962 0.9638791
0002e0 9f 61 7b 3f 3f 11 77 3f 2c 3d 83 3f 14 74 85 3f
       0.9819583 0.9651069 1.0253043 1.0426049
0002f0 3b 53 85 3f bf 9f 7f 3f e3 ab 9b 3f 18 51 88 3f
       1.0416025 0.9985313 1.2161831 1.0649748
000300 d7 ad 84 3f b7 d1 8f 3f 91 29 82 3f a1 82 78 3f
       1.0365552 1.1235875 1.0168935 0.97074324
000310 9b b6 88 3f c3 43 6d 3f ba 5f 8a 3f d8 cd 85 3f
       1.0680727 0.9268152 1.0810463 1.0453444
000320 bf df 78 3f 0e 3d 84 3f 98 cc 78 3f 43 40 82 3f
       0.9721641 1.0331132 0.97187185 1.0175861
000330 97 67 84 3f 09 9e 80 3f 79 6e 93 3f 0e bc 88 3f
       1.0344113 1.0048229 1.1518089 1.068239
000340 f8 1c 7c 3f a4 43 90 3f 4a 32 89 3f f6 92 82 3f
       0.984817 1.1270642 1.0718472 1.0201099
000350 c7 6e 7a 3f 31 20 80 3f 2d ea 7c 3f ad cc 6c 3f
       0.9782528 1.0009824 0.98794824 0.9249981
000360 4a b5 82 3f 8b 40 9d 3f 5d 7d 87 3f c8 97 81 3f
       1.0211575 1.2285322 1.0585133 1.0124445
000370 13 ab 7e 3f 03 f5 9d 3f b3 7e 81 3f c5 ba 8a 3f
       0.9947979 1.2340397 1.011679 1.0838248
000380 be be 7c 3f c7 5a 86 3f 01 21 92 3f ab 0e 87 3f
       0.9872855 1.0496453 1.1416322 1.0551351
000390 1e 51 86 3f 80 30 93 3f ef ad ad 3f bd 1f 94 3f
       1.0493505 1.1499176 1.3568705 1.1572186
0003a0 63 64 81 3f d4 62 88 3f f8 16 91 3f 02 b4 84 3f
       1.010876 1.065516 1.1335135 1.0367434
0003b0 a6 16 71 3f 66 c4 86 3f a3 a3 81 3f 69 93 7c 3f
       0.94175184 1.0528686 1.0128063 0.9866243
0003c0 22 24 88 3f 32 72 88 3f fb f4 7c 3f 2b 32 80 3f
       1.0636027 1.065985 0.9881131 1.001531
0003d0 ad 38 87 3f 0f 45 8d 3f ac e3 88 3f a8 dc 8d 3f
       1.0564171 1.10367 1.069448 1.1082964
0003e0 77 aa 7b 3f af 69 75 3f 00 0b 69 3f 78 6d 82 3f
       0.98306984 0.95864385 0.9103241 1.0189657
0003f0 8a 11 81 3f 01 c4 8a 3f 55 72 7e 3f 7f d9 7f 3f
       1.0083477 1.0841066 0.99393207 0.9994125
