app/src/main/assets/models/hyperxray_policy_int8.onnx (onnx, 8960 bytes, 6 tensors)

net.0.bias f4 [64]
00000000: f433 883d f231 a93e e00b 833d 9253 5bbe
00000010: 1ac6 8cbe 6df0 d5bf cb2e 6a3e bda8 bcbd
00000020: b104 ce3e 3013 263e a897 b6be e44d 523e
00000030: 053c 54bf 3caa 45be 3321 d9bc 7ca3 b6ba
00000040: 0e11 c5bd dce9 de3d 3630 83be 0d07 bb3e
00000050: 8824 b83d 71a1 653e 6384 853c 674f 573e
00000060: 190b 163e 5280 843d f2f0 0e3e 6878 5b3e
00000070: b985 cc3e c53a 8f3e f586 673d 66a4 fabc
00000080: 44cd 67bf ee1e d0be e3a7 14bf d20b f23d
00000090: f04c a4bd 1ef4 873e ad71 3dbe 321a 1fbe
000000a0: 32a0 44bd a693 343e 2bbb a53e 1428 473e
000000b0: 9fde 09be 720c 483e 5329 c03e 91f0 32bf
000000c0: 1eb4 52be 4c08 213e 9e8e 4bbd 3455 1c3e
000000d0: 0e59 8e3e 01b1 2dbd 4c0d a13c 500a c53d
000000e0: 9178 78bd 6152 89be cc7d 1b3f 9a92 6f3e
000000f0: b4fe 39bd 2ea8 8fbd a07d 87be bda3 2e3e
0.06650534 0.33045918 0.06398749 -0.21418598 -0.2749489 -1.6713997 0.22869413 -0.09211872
0.40237954 0.16218257 -0.3566258 0.20537525 -0.8290408 -0.1930322 -0.026505088 -0.001393422
-0.096223935 0.10884449 -0.2562272 0.36528817 0.08991343 0.22424866 0.016298478 0.21026383
0.14652671 0.06469788 0.13959101 0.2143265 0.39945772 0.27974525 0.05652519 -0.03059597
-0.90547585 -0.40648597 -0.58068675 0.11818661 -0.08022487 0.26553434 -0.18500395 -0.15537336
-0.048004337 0.17634448 0.3236936 0.19448882 -0.1346383 0.19535998 0.37531528 -0.69898325
-0.20576522 0.15725821 -0.049696557 0.15266877 0.27802318 -0.042405132 0.01965966 0.096211076
-0.060661856 -0.26820663 0.60738826 0.23395768 -0.04540892 -0.070144996 -0.26463032 0.17054649

net.2.bias f4 [64]
00000000: fa7e e7bd 4e83 7d3e 2694 183d a158 9bbc
00000010: b4e3 b6bd b7c3 a23d 13cb 553c 5db5 003e
00000020: d7e7 a0be 3a01 92bf 7b49 d8bd adf0 223d
00000030: c07f 723c 0d9f 193d 25c4 b33d 38de 04be
00000040: 940e 9fbe e3bf aebd 351f e9bd a0b8 80bd
00000050: abc1 753d a6de 8f3d de86 7ebe f093 ae3e
00000060: 6f09 163e ddd3 733e a05d 09be 5292 1fbe
00000070: a06c 9e3d f00f 36be 5df7 a53c 9047 403d
00000080: 703c 3d3e ac10 893c b39e 963d 17fa b0ba
00000090: 8ff1 76bd 5626 013d db48 79be 5902 ba3d
000000a0: 7a46 7a3d d7d7 c13e f21f 0c3d dd2c 4d3d
000000b0: 76b5 99bd 77f1 8c3d 8f42 793e 582d cd3d
000000c0: daec 443d b354 0bbe 9685 1dbe 2554 cbbd
000000d0: 58ae 8f3e ee8f d93a edcd 0cbd f772 0fbe
000000e0: 97af c6bb f5e6 f6be ab46 33bd d4e0 8fbd
000000f0: 4a46 82bd 3413 1bbf 83df 0c3e 0c88 103c
-0.11303516 0.2475712 0.03725066 -0.01896316 -0.0893015 0.07947486 0.013048905 0.12569185
-0.3142688 -1.1406624 -0.1056089 0.039780308 0.014800966 0.0375052 0.08777646 -0.12975395
-0.3106581 -0.08532693 -0.113829054 -0.062852144 0.05999915 0.07024889 -0.24856135 0.34097242
0.14652036 0.23811288 -0.13414621 -0.1558316 0.07735562 -0.17779517 0.020259554 0.046943247
0.18480086 0.016731583 0.07354488 -0.0013502267 -0.060288962 0.0315307 -0.24344198 0.09082479
0.061102368 0.37859985 0.034210153 0.050091613 -0.07505314 0.06881993 0.24341796 0.10018414
0.04807744 -0.13606529 -0.1538299 -0.09928159 0.280627 0.001659868 -0.034376074 -0.140087
-0.0060634124 -0.4822308 -0.043768566 -0.070253044 -0.06361063 -0.60576177 0.13757138 0.008821499

net.4.bias f4 [5]
00000000: 5355 6cbe 1349 1cbe aaff 033e 9822 a03e
00000010: 7415 4a3e
-0.23079424 -0.1526225 0.12890497 0.31276393 0.19734746

net.0.weight_quantized i1 [16, 64]
00000000: 0602 f8eb f00f fc01 11f4 f4f5 0ce9 f3f6
00000010: 0ce8 0f08 06fa f5f4 e90c fdec 07ef fc0b
00000020: 11f7 0b08 f40d fb0c ed04 efe7 f4e3 fb06
00000030: 0df0 110a ed06 edfe 07e9 10ec 0aea 09ff
00000040: fe22 ea03 e9bc 0c05 1d0d 0b18 e707 0117
00000050: 02fa f6ff 0008 fa06 2103 0ff7 0c03 18f1
00000060: cafc f108 ff0f f302 0804 f105 20f1 04e5
00000070: f9f1 ebf8 e7f8 e610 feea 0af9 04e4 eef1
00000080: f9f4 f2ff f4f3 06ff daee 0609 f7f5 08f0
00000090: f9ff 0a0f 0c0f 0a19 14fe 06fa eef9 08f7
000000a0: f604 e5f8 f001 0209 0008 ec0a 0912 e8f9
000000b0: f1fb f506 07f0 f4f0 f40a fc08 f812 f2ee
000000c0: 04e7 f404 12ff e202 fcf0 08fb 0a08 0a06
000000d0: fa05 00f4 f9f9 fbfc 0405 e4ed f90d e514
000000e0: ff04 060d eb0e 0deb fb03 0604 f3f2 12fd
000000f0: f9f5 020e ea08 0ef0 f4f3 f6de 02f2 0803
6 2 -8 -21 -16 15 -4 1
17 -12 -12 -11 12 -23 -13 -10
12 -24 15 8 6 -6 -11 -12
-23 12 -3 -20 7 -17 -4 11
17 -9 11 8 -12 13 -5 12
-19 4 -17 -25 -12 -29 -5 6
13 -16 17 10 -19 6 -19 -2
7 -23 16 -20 10 -22 9 -1
-2 34 -22 3 -23 -68 12 5
29 13 11 24 -25 7 1 23
2 -6 -10 -1 0 8 -6 6
33 3 15 -9 12 3 24 -15
-54 -4 -15 8 -1 15 -13 2
8 4 -15 5 32 -15 4 -27
-7 -15 -21 -8 -25 -8 -26 16
-2 -22 10 -7 4 -28 -18 -15
-7 -12 -14 -1 -12 -13 6 -1
-38 -18 6 9 -9 -11 8 -16
-7 -1 10 15 12 15 10 25
20 -2 6 -6 -18 -7 8 -9
-10 4 -27 -8 -16 1 2 9
0 8 -20 10 9 18 -24 -7
-15 -5 -11 6 7 -16 -12 -16
-12 10 -4 8 -8 18 -14 -18
4 -25 -12 4 18 -1 -30 2
-4 -16 8 -5 10 8 10 6
-6 5 0 -12 -7 -7 -5 -4
4 5 -28 -19 -7 13 -27 20
-1 4 6 13 -21 14 13 -21
-5 3 6 4 -13 -14 18 -3
-7 -11 2 14 -22 8 14 -16
-12 -13 -10 -34 2 -14 8 3

net.2.weight_quantized i1 [64, 64]
00000000: 10f6 d919 03f0 0b19 19d9 e721 0edf e71d
00000010: 2101 1fee 0c1e fdf6 f9f8 e0fd 2800 d7fc
00000020: f601 211d faeb d600 0ade dcda d8d2 e7f8
00000030: 11d6 faeb 1cf4 e6fc faf8 d814 d5f3 f9e2
00000040: dff6 f739 eb0e cbf9 e737 0926 06fa faf3
00000050: cffc 24eb db1c b5fc e31a d9df dc08 e00b
00000060: d3ef 0008 f9e1 2d04 3b10 d124 fe2b 0fed
00000070: 30e9 efed eb2d e514 e7e6 cf19 16bb 0901
00000080: e60f f2f8 deeb e122 e3e0 f2fb dfd9 dd1b
00000090: 2501 0b14 120c 1beb d901 0028 f3f2 f40e
000000a0: f717 e002 1f14 2214 0220 fb18 f4ec dbe8
000000b0: f1fa f708 eff2 fc19 09f8 f103 1003 151b
000000c0: 1522 0ff5 fd10 0004 ffd4 e628 d4e4 dcd5
000000d0: 11f4 eb1d fc01 effd dc05 21d7 03e5 dc03
000000e0: d80e f9fe 1618 fbf6 f1e7 1df0 f6df e0e3
000000f0: 1bdd cf15 dc00 2115 e6fd 052e f1d9 fbd5
16 -10 -39 25 3 -16 11 25
25 -39 -25 33 14 -33 -25 29
33 1 31 -18 12 30 -3 -10
-7 -8 -32 -3 40 0 -41 -4
-10 1 33 29 -6 -21 -42 0
10 -34 -36 -38 -40 -46 -25 -8
17 -42 -6 -21 28 -12 -26 -4
-6 -8 -40 20 -43 -13 -7 -30
-33 -10 -9 57 -21 14 -53 -7
-25 55 9 38 6 -6 -6 -13
-49 -4 36 -21 -37 28 -75 -4
-29 26 -39 -33 -36 8 -32 11
-45 -17 0 8 -7 -31 45 4
59 16 -47 36 -2 43 15 -19
48 -23 -17 -19 -21 45 -27 20
-25 -26 -49 25 22 -69 9 1
-26 15 -14 -8 -34 -21 -31 34
-29 -32 -14 -5 -33 -39 -35 27
37 1 11 20 18 12 27 -21
-39 1 0 40 -13 -14 -12 14
-9 23 -32 2 31 20 34 20
2 32 -5 24 -12 -20 -37 -24
-15 -6 -9 8 -17 -14 -4 25
9 -8 -15 3 16 3 21 27
21 34 15 -11 -3 16 0 4
-1 -44 -26 40 -44 -28 -36 -43
17 -12 -21 29 -4 1 -17 -3
-36 5 33 -41 3 -27 -36 3
-40 14 -7 -2 22 24 -5 -10
-15 -25 29 -16 -10 -33 -32 -29
27 -35 -49 21 -36 0 33 21
-26 -3 5 46 -15 -39 -5 -43

net.4.weight_quantized i1 [64, 5]
00000000: f703 fced fae4 e9f4 10e8 dd1a e116 0f14
00000010: 2efb 2b1d 2416 0818 110f f7e6 0b0d 0002
00000020: 0bf1 13fd fff5 fef5 2a24 1817 1fff fddc
00000030: dbda f512 2404 1e28 0c2d 011f f9ff edf9
00000040: 1afc ff12 190d f4ec d108 d5dc 110d e415
00000050: 170d fcfa 05f0 1adf e618 05e7 04da e8e7
00000060: fbf9 de24 f712 1222 e5d6 14eb fdd9 0501
00000070: f9f0 f3f1 ed13 ed04 b481 06fb f9ed f0f8
00000080: fa00 1bd4 17e7 2402 f0dc f2f0 1913 20f9
00000090: e304 03f3 f70a e3d5 e1d6 f01c f21a e8d0
000000a0: f5f8 17ea 0907 fef2 041b 0fd1 e3f9 d8fb
000000b0: 1317 0901 d91a 2fd2 ecfc 05dc 1bf9 0618
000000c0: eef3 1bdc ee23 2710 fbfc fdf1 01f3 e520
000000d0: 1c08 ebf7 f01a 0f2d dffd 0fdc 16f3 ebf6
000000e0: eb2e c9db e60b 1a11 010d f7fa d131 f3e6
000000f0: f1f4 0817 f1e0 f902 30ed ece0 d9e6 d7df
-9 3 -4 -19 -6 -28 -23 -12
16 -24 -35 26 -31 22 15 20
46 -5 43 29 36 22 8 24
17 15 -9 -26 11 13 0 2
11 -15 19 -3 -1 -11 -2 -11
42 36 24 23 31 -1 -3 -36
-37 -38 -11 18 36 4 30 40
12 45 1 31 -7 -1 -19 -7
26 -4 -1 18 25 13 -12 -20
-47 8 -43 -36 17 13 -28 21
23 13 -4 -6 5 -16 26 -33
-26 24 5 -25 4 -38 -24 -25
-5 -7 -34 36 -9 18 18 34
-27 -42 20 -21 -3 -39 5 1
-7 -16 -13 -15 -19 19 -19 4
-76 -127 6 -5 -7 -19 -16 -8
-6 0 27 -44 23 -25 36 2
-16 -36 -14 -16 25 19 32 -7
-29 4 3 -13 -9 10 -29 -43
-31 -42 -16 28 -14 26 -24 -48
-11 -8 23 -22 9 7 -2 -14
4 27 15 -47 -29 -7 -40 -5
19 23 9 1 -39 26 47 -46
-20 -4 5 -36 27 -7 6 24
-18 -13 27 -36 -18 35 39 16
-5 -4 -3 -15 1 -13 -27 32
28 8 -21 -9 -16 26 15 45
-33 -3 15 -36 22 -13 -21 -10
-21 46 -55 -37 -26 11 26 17
1 13 -9 -6 -47 49 -13 -26
-15 -12 8 23 -15 -32 -7 2
48 -19 -20 -32 -39 -26 -41 -33
