app/src/main/assets/models/hyperxray_policy.onnx (onnx, 23106 bytes, 6 tensors)

net.0.weight f4 [64, 16]
0.06542557 -0.020599002 -0.076726526 0.04463601 -0.021573808 0.052931875 0.052058727 0.011361855
0.023379026 -0.34354535 -0.22970654 0.07745633 0.21370898 -0.09094933 0.012241846 -0.195872
0.021335123 0.36666706 -0.12401509 -0.2655403 0.24114802 -0.028966289 0.32854974 0.33316317
0.3884919 0.47272807 0.23542725 0.11210799 -0.07487076 0.3231796 0.07852126 0.2909936
-0.08287585 -0.2356796 -0.14843056 -0.12392968 -0.20158488 0.0444023 -0.09028867 0.221071
0.043235183 -0.13069427 -0.22642305 0.17008114 0.23039687 -0.09883177 0.023682207 -0.10660693
-0.22067095 0.02868463 -0.015953453 0.04398677 0.029900013 -0.0070862668 -0.27953106 -0.093244955
-0.18004675 0.14078315 0.15662727 -0.27037176 0.27002764 -0.12865034 0.17510635 -0.13297367
-0.1740802 -0.2460551 -0.13345723 0.19478369 -0.26983607 -0.4868677 -0.3856166 -0.2614254
-0.266899 -0.31326914 -0.21944447 -0.13776079 -0.31843552 -0.32840785 -0.548666 -0.36981854
0.15551938 -0.7286816 -0.13762516 -0.011944624 -0.157927 -1.1478908 -0.91483337 -1.2445757
-0.9229923 -1.0327644 -1.2537574 -0.9458586 -0.9922073 -1.3602325 -1.1508973 -1.0911174
-0.039642382 0.12357267 0.064789966 -0.32064214 0.019492622 -0.21684691 -0.25581953 -0.02498519
0.04293005 -0.14221704 0.096043624 0.17404038 -0.18229616 0.04356187 0.15879814 -0.23955934
0.0118534705 0.053577244 -0.01441168 0.017667895 -0.09736821 -0.014080958 -0.32236496 -0.19515963
-0.13400748 -0.2639907 -0.30914882 -0.48392752 0.081232 -0.19762744 0.081335254 -0.020151248
0.18698704 0.3155404 -0.40477616 -0.03769728 -0.016522046 0.4376435 0.59651285 0.39501235
0.30780748 0.30697 0.71081895 0.43193763 0.1139547 0.75535375 0.5120951 0.25659505
-0.13078362 0.13999134 -0.19225207 -0.16932511 -0.17623505 0.20744109 0.20771393 -0.055647075
-0.18597606 0.100688875 -0.14918369 0.054618657 0.01641354 -0.118724614 -0.03610757 0.23464161
-0.13286814 0.12264303 0.06499905 0.08324006 0.18237476 -0.19481075 -0.41738868 -0.36369354
-0.105657 -0.31207883 -0.23557469 -0.43229127 -0.022145132 -0.44967663 -0.11767546 -0.2522021
-0.12214411 0.2573333 0.09716417 -0.055637907 -0.24998179 0.07883883 -0.052487813 -0.16359308
0.13186873 -0.22123063 -0.124468796 0.048202816 0.0822702 0.111596495 0.10495181 0.018929914
0.12855382 -0.2667377 -0.094106324 0.10384603 0.0950775 -0.6359008 -0.77357674 -0.5186499
-0.33247304 -0.7273902 -0.52604836 -0.87111515 -0.54722214 -0.38923803 -0.57412434 -0.5973891
-0.24709699 0.07568251 -0.11925478 0.08617066 0.13083597 -0.14891845 0.18420982 0.18018597
0.065515384 -0.20443285 0.27265617 -0.06917685 -0.019338673 -0.143583 0.23572363 -0.06910887
-0.14181751 0.010923766 0.08913936 0.11237601 0.02039897 -0.23466407 0.10787564 -0.1303367
0.11262692 0.27607486 0.02161876 -0.11674022 -0.057064362 0.16654767 -0.087230146 0.27686986
-0.102206826 0.2459554 -0.16943613 0.06783497 -0.12224771 -0.18287359 0.21182273 -0.24684188
0.004318988 -0.15146194 0.108731166 -0.10290487 0.043331765 -0.105640516 -0.03416739 0.19880055
00000000: d7fd 853d 3dbf a8bc cc22 9dbd 40d4 363d
00000010: 8ebb b0bc 18cf 583d 883b 553d 1327 3a3c
00000020: 5f85 bf3c 2de5 afbe 3138 6bbe 6da1 9e3d
00000030: 87d6 5a3e a443 babd 0692 483c ab92 48be
00000040: ffc6 ae3c c9bb bb3e a0fb fdbd e6f4 87be
00000050: 82ef 763e b64a edbc ac37 a83e 5d94 aa3e
00000060: 69e8 c63e 6a09 f23e d713 713e e098 e53d
00000070: d755 99bd cc77 a53e c1cf a03d 1dfd 943e
00000080: d0ba a9bd fe55 71be 2efe 17be d8ce fdbd
00000090: 446c 4ebe 30df 353d 44e9 b8bd 7060 623e
000000a0: 6017 313d b8d4 05be 72db 67be c029 2e3e
000000b0: 28ed 6b3e 5068 cabd 3001 c23c bc54 dabd
000000c0: 91f7 61be 07fc ea3c d1b0 82bc 792b 343d
000000d0: dff0 f43c ea33 e8bb b21e 8fbe 36f7 bebd
000000e0: 2d5e 38be 7529 103e e662 203e 2b6e 8abe
000000f0: 1041 8a3e eabc 03be 144f 333e 402a 08be
00000100: 1442 32be def5 7bbe 03a9 08be 6075 473e
00000110: f427 8abe b946 f9be 8a6f c5be 8dd9 85be
00000120: fca6 88be d064 a0be 0db6 60be 2a11 0dbe
00000130: fb09 a3be 1325 a8be 6075 0cbf db58 bdbe
00000140: 7940 1f3e e18a 3abf 9ced 0cbe 62b3 43bc
00000150: 9eb7 21be 16ee 92bf 8532 6abf 424e 9fbf
00000160: 3949 6cbf a031 84bf 1f7b a0bf ca23 72bf
00000170: 4c01 7ebf 191c aebf 9a50 93bf bca9 8bbf
00000180: 0d60 22bd ab13 fd3d 9ab0 843d 352b a4be
00000190: feae 9f3c 1e0d 5ebe c7fa 82be bead ccbc
000001a0: 6cd7 2f3d 58a1 11be 85b2 c43d a437 323e
000001b0: d8ab 3abe ee6d 323d fb9b 223e 0b4f 75be
000001c0: 0f35 423c d073 5b3d f81e 6cbc 43bc 903c
000001d0: fc68 c7bd d2b3 66bc 050d a5be edd7 47be
000001e0: 4239 09be ca29 87be c148 9ebe 59c5 f7be
000001f0: f65c a63d d95e 4abe 1993 a63d 3b14 a5bc
00000200: 8879 3f3e 838e a13e d23e cfbe 7768 1abd
00000210: 3e59 87bc cf12 e03e 11b5 183f 0f3f ca3e
00000220: f198 9d3e 2c2b 9d3e 3bf8 353f ee26 dd3e
00000230: 1561 e93d dd5e 413f aa18 033f 6d60 833e
00000240: 24ec 05be e459 0f3e badd 44be 9063 2dbe
00000250: f676 34be 706b 543e f6b2 543e 30ee 63bd
00000260: 8270 3ebe f835 ce3d 9cc3 18be d0b7 5f3d
00000270: b075 863c e425 f3bd 88e5 13bd e445 703e
00000280: 960e 08be 452c fb3d 391e 853d c479 aa3d
00000290: 73c0 3a3e 787c 47be f8b3 d5be 0a36 babe
000002a0: b262 d8bd ccc8 9fbe 7e3a 71be 4855 ddbe
000002b0: b569 b5bc 043c e6be d5ff f0bd a220 81be
000002c0: b126 fabd 31c1 833e 02fe c63d 93e4 63bd
000002d0: 3afb 7fbe 4176 a13d 76fd 56bd f284 27be
000002e0: 9908 073e 488a 62be 7fe9 febd 5170 453d
000002f0: 477d a83d b48c e43d f9f0 d63d e812 9b3c
00000300: 9da3 033e d891 88be d1ba c0bd 3aad d43d
00000310: feb7 c23d 65ca 22bf 2009 46bf 3dc6 04bf
00000320: e839 aabe 3f36 3abf 1bab 06bf 6701 5fbf
00000330: c016 0cbf 354a c7be d0f9 12bf 7eee 18bf
00000340: fe06 7dbe 6fff 9a3d da3b f4bd 3e7a b03d
00000350: ddf9 053e 147e 18be 80a1 3c3e ac82 383e
00000360: ee2c 863d d856 51be 9799 8b3e 98ac 8dbd
00000370: 236c 9ebc 6c07 13be 8961 713e f488 8dbd
00000380: 9c38 11be 98f9 323c b28e b63d 6525 e63d
00000390: be1b a73c c74b 70be e7ed dc3d fc76 05be
000003a0: f1a8 e63d af59 8d3e d319 b13c 7f15 efbd
000003b0: 52bc 69bd 798b 2a3e b8a5 b2bd e3c1 8d3e
000003c0: d051 d1bd bbdb 7b3e aa80 2dbe 10ed 8a3d
000003d0: 025d fabd 3743 3bbe 0fe8 583e 1ec4 7cbe
000003e0: 4c86 8d3b d718 1bbe 72ae de3d cabf d2bd
000003f0: a67c 313d 0e5a d8bd 1bf3 0bbd 5f92 4b3e

net.0.bias f4 [64]
0.06650534 0.33045918 0.06398749 -0.21418598 -0.2749489 -1.6713997 0.22869413 -0.09211872
0.40237954 0.16218257 -0.3566258 0.20537525 -0.8290408 -0.1930322 -0.026505088 -0.001393422
-0.096223935 0.10884449 -0.2562272 0.36528817 0.08991343 0.22424866 0.016298478 0.21026383
0.14652671 0.06469788 0.13959101 0.2143265 0.39945772 0.27974525 0.05652519 -0.03059597
-0.90547585 -0.40648597 -0.58068675 0.11818661 -0.08022487 0.26553434 -0.18500395 -0.15537336
-0.048004337 0.17634448 0.3236936 0.19448882 -0.1346383 0.19535998 0.37531528 -0.69898325
-0.20576522 0.15725821 -0.049696557 0.15266877 0.27802318 -0.042405132 0.01965966 0.096211076
-0.060661856 -0.26820663 0.60738826 0.23395768 -0.04540892 -0.070144996 -0.26463032 0.17054649
00000000: f433 883d f231 a93e e00b 833d 9253 5bbe
00000010: 1ac6 8cbe 6df0 d5bf cb2e 6a3e bda8 bcbd
00000020: b104 ce3e 3013 263e a897 b6be e44d 523e
00000030: 053c 54bf 3caa 45be 3321 d9bc 7ca3 b6ba
00000040: 0e11 c5bd dce9 de3d 3630 83be 0d07 bb3e
00000050: 8824 b83d 71a1 653e 6384 853c 674f 573e
00000060: 190b 163e 5280 843d f2f0 0e3e 6878 5b3e
00000070: b985 cc3e c53a 8f3e f586 673d 66a4 fabc
00000080: 44cd 67bf ee1e d0be e3a7 14bf d20b f23d
00000090: f04c a4bd 1ef4 873e ad71 3dbe 321a 1fbe
000000a0: 32a0 44bd a693 343e 2bbb a53e 1428 473e
000000b0: 9fde 09be 720c 483e 5329 c03e 91f0 32bf
000000c0: 1eb4 52be 4c08 213e 9e8e 4bbd 3455 1c3e
000000d0: 0e59 8e3e 01b1 2dbd 4c0d a13c 500a c53d
000000e0: 9178 78bd 6152 89be cc7d 1b3f 9a92 6f3e
000000f0: b4fe 39bd 2ea8 8fbd a07d 87be bda3 2e3e

net.2.weight f4 [64, 64]
0.049216263 -0.10126008 -0.07969214 0.06508874 0.020675624 -0.030717144 -0.11011287 0.032726947
-0.060988996 0.030658871 -0.11021584 -0.2583738 0.084491365 0.039054032 -0.07792245 0.06058345
0.102794096 0.0028723434 0.11870818 -0.051405963 -0.08425421 0.11973276 0.048804246 0.09090575
-0.11634273 -0.079894125 -0.09038252 0.072598994 0.07077362 -0.048060894 0.098352574 0.011271969
-0.067620166 0.07003956 0.07954431 -0.06962734 -0.009641926 0.03802838 -0.03370718 -0.017451474
-0.081036106 0.07541758 0.035021134 -0.049980827 -0.02309711 -0.0029860542 0.060552526 0.15256338
-0.08822498 -0.011246279 0.09661578 -0.0040728925 -0.03783161 -0.040992763 0.046933923 -0.08271262
0.10147738 -0.005547994 0.03488234 0.056027647 -0.012426512 0.09532948 -0.13694817 0.07032284
-0.032329973 -0.029768396 0.046278894 0.10541671 -0.07694185 -0.21513484 0.1203549 -0.06656895
-0.024220861 0.007495463 0.011725634 0.0906266 0.053369656 -0.005869327 -0.10947018 -0.06221109
0.0487404 0.11284222 0.04386546 -0.017612303 0.046918985 -0.0042111757 0.03220613 0.07900729
0.032740485 0.07556053 0.19152981 0.07287945 -0.039948057 0.08411692 0.09591221 0.065453276
-0.031682592 0.039681334 0.04645962 -0.115508616 -0.029208623 -0.09398712 0.016489081 -0.04114155
0.070624724 0.043690298 0.0009744468 -0.05939597 0.25729704 -0.16162884 0.102349825 0.01804276
-0.014638543 0.04549943 0.041683502 0.052358847 -0.16828953 0.10233525 0.07354233 0.110289335
0.032509215 -0.043617584 0.050710365 0.044401698 0.014040388 -0.24088423 -0.028348515 0.03312029
-0.121330544 -0.026741164 -0.041839108 0.045551654 -0.024265995 -0.0025448822 0.0148112485 0.015981015
0.056800447 -0.1150295 0.09549509 0.055691317 -0.09745999 -0.007657447 0.014004142 -0.008677762
0.04358684 -0.109080926 -0.085677244 -0.103833 -0.009699069 0.07274695 0.06387454 -0.24731612
-0.02118182 -0.019876286 0.088396624 -0.07883462 -0.055980794 0.024495564 0.009266827 -0.060441043
0.009492849 -0.1206292 0.07827519 -0.0789997 -0.047334358 0.079702556 -0.10659301 -0.12535788
0.011077911 0.09867748 0.087445654 0.061384913 0.042753067 0.05157294 0.07702227 -0.07339424
0.09772673 0.06681438 0.05460356 -0.003025057 -0.041353617 0.041326508 0.06601741 -0.08017096
0.11699327 0.07364873 -0.018208113 -0.18196854 0.07996889 0.07652603 -0.11678742 -0.031260315
0.07768527 0.1751408 -0.026039138 -0.035289187 0.02495972 -0.14387774 -0.1334821 0.030333403
-0.04637413 0.040241137 0.016611077 -0.121684216 0.029383466 0.048649386 -0.077897646 0.018313646
-0.017869823 0.05426205 0.06102071 -0.019122554 0.02875421 0.08914442 -0.005460419 -0.048020687
-0.12033552 0.028896712 0.081378885 -0.053703666 0.090145074 0.08139342 -0.096976586 -0.086279236
-0.05525974 0.073766984 0.029843548 -0.09082199 0.12555473 -0.007937667 0.022804728 0.0013900176
0.023035845 -0.13584234 -0.109166175 -0.036816563 -0.041448805 0.06683052 0.05183934 0.07316265
0.07185909 -0.121042415 -0.03355329 -0.0062242127 -0.037439004 -0.015752712 0.0007746547 -0.034658283
-0.05858443 -0.058027256 -0.119842194 0.06914429 -0.11342482 -0.049277812 0.017234042 -0.12352679
00000000: fe96 493d 7261 cfbd a235 a3bd 3f4d 853d
00000010: ed5f a93c 85a2 fbbc db82 e1bd b10c 063d
00000020: 99cf 79bd 5028 fb3c d8b8 e1bd 9249 84be
00000030: cf09 ad3d 1ff7 1f3d ce95 9fbd 5a26 783d
00000040: b685 d23d ed3d 3c3b 461d f33d 0f8f 52bd
00000050: 798d acbd 7336 f53d f6e6 473d cb2c ba3d
00000060: 1945 eebd 889f a3bd 781a b9bd c8ae 943d
00000070: c2f1 903d 80db 44bd 136d c93d 11ae 383c
00000080: 717c 8abd e770 8f3d 21e8 a23d c798 8ebd
00000090: 2bf9 1dbc a6c3 1b3d 8a10 0abd 65f6 8ebc
000000a0: 42f6 a5bd 8874 9a3d 5272 0f3d b2b8 4cbd
000000b0: 2736 bdbc adb1 43bb ed05 783d 9339 1c3e
000000c0: 4caf b4bd 5042 38bc 7ede c53d e675 85bb
000000d0: 51f5 1abd 07e8 27bd c93d 403d 3c65 a9bd
000000e0: 5fd3 cf3d f2cb b5bb c9e0 0e3d 3f7d 653d
000000f0: 9298 4bbc 1a3c c33d 243c 0cbe 6c05 903d
00000100: 6f6c 04bd dadc f3bc f08e 3d3d b7e4 d73d
00000110: b093 9dbd 4f4c 5cbe a17c f63d 4d55 88bd
00000120: d46a c6bc 809c f53b e01c 403c 709a b93d
00000130: 249a 5a3d 7c53 c0bb e731 e0bd 0ed1 7ebd
00000140: 03a4 473d d219 e73d 45ac 333d ad47 90bc
00000150: 1f2e 403d e7fd 89bb 93ea 033d 93ce a13d
00000160: e31a 063d 7bbf 9a3d 6420 443e d241 953d
00000170: 93a0 23bd 7e45 ac3d 9f6d c43d 5e0c 863d
00000180: 9bc5 01bd e588 223d 714c 3e3d c88f ecbd
00000190: ec46 efbc 527c c0bd 1c14 873c 0b84 28bd
000001a0: b2a3 903d 99f4 323d 0572 7f3a 3049 73bd
000001b0: 70bc 833e 0882 25be c99c d13d 69ce 933c
000001c0: 80d6 6fbc 9c5d 3a3d 52bc 2a3d 3b76 563d
000001d0: 1754 2cbe 2595 d13d 5c9d 963d 60df e13d
000001e0: 6228 053d 5aa8 32bd acb5 4f3d 8ede 353d
000001f0: a809 663c 5baa 76be 253b e8bc 24a9 073d
00000200: 267c f8bd 4910 dbbc 7c5f 2bbd 5f94 3a3d
00000210: 7bc9 c6bc 0ac8 26bb e1aa 723c 9eea 823c
00000220: 96a7 683d 9694 ebbd ee92 c33d 941c 643d
00000230: 1a99 c7bd 52eb fabb a171 653c 2c2d 0ebc
00000240: 1d88 323d d265 dfbd 8d77 afbd 65a6 d4bd
00000250: d8e8 1ebc 5afc 943d a8d0 823d 7040 7dbe
00000260: 7f85 adbc 98d3 a2bc 4a09 b53d 0c74 a1bd
00000270: 1e4c 65bd ecaa c83c e4d3 173c 0791 77bd
00000280: e587 1b3c 710c f7bd be4e a03d 98ca a1bd
00000290: ace1 41bd 183b a33d 704d dabd d15d 00be
000002a0: 2080 353c 6b17 ca3d b516 b33d bf6e 7b3d
000002b0: d71d 2f3d 263e 533d dabd 9d3d b84f 96bd
000002c0: f424 c83d fad5 883d fca7 5f3d 0940 46bb
000002d0: 6962 29bd fc45 293d 2334 873d ac30 a4bd
000002e0: 2b9a ef3d 25d5 963d 2e29 95bc f655 3abe
000002f0: bbc6 a33d aeb9 9c3d 3e2e efbd d10a 00bd
00000300: 7419 9f3d 1c58 333e 0850 d5bc 658b 10bd
00000310: 5478 cc3c b054 13be 88af 08be c27d f83c
00000320: cdf2 3dbd e4d3 243d f413 883c 9335 f9bd
00000330: 98b5 f03c 9444 473d cd88 9fbd 8006 963c
00000340: bc63 92bc e241 5e3d daf0 793d e7a6 9cbc
00000350: f38d eb3c 5a91 b63d 51ed b2bb 57b1 44bd
00000360: 7872 f6bd ccb8 ec3c f9a9 a63d 60f8 5bbd
00000370: fb9d b83d 98b1 a63d a99b c6bd 2bb3 b0bd
00000380: 0a58 62bd 2513 973d 757a f43c e100 babd
00000390: 6b91 003e fd0c 02bc fbd0 ba3c 4031 b63a
000003a0: abb5 bc3c 411a 0bbe 8492 dfbd f7cc 16bd
000003b0: 39c6 29bd 71de 883d 7d55 543d 4dd6 953d
000003c0: dc2a 933d 16e5 f7bd 2d6f 09bd 7bf4 cbbb
000003d0: a459 19bd d50b 81bc 3212 4b3a d8f5 0dbd
000003e0: 3af6 6fbd fdad 6dbd d36f f5bd 869b 8d3d
000003f0: 464b e8bd 88d7 49bd 682e 8d3c 9dfb fcbd

net.2.bias f4 [64]
-0.11303516 0.2475712 0.03725066 -0.01896316 -0.0893015 0.07947486 0.013048905 0.12569185
-0.3142688 -1.1406624 -0.1056089 0.039780308 0.014800966 0.0375052 0.08777646 -0.12975395
-0.3106581 -0.08532693 -0.113829054 -0.062852144 0.05999915 0.07024889 -0.24856135 0.34097242
0.14652036 0.23811288 -0.13414621 -0.1558316 0.07735562 -0.17779517 0.020259554 0.046943247
0.18480086 0.016731583 0.07354488 -0.0013502267 -0.060288962 0.0315307 -0.24344198 0.09082479
0.061102368 0.37859985 0.034210153 0.050091613 -0.07505314 0.06881993 0.24341796 0.10018414
0.04807744 -0.13606529 -0.1538299 -0.09928159 0.280627 0.001659868 -0.034376074 -0.140087
-0.0060634124 -0.4822308 -0.043768566 -0.070253044 -0.06361063 -0.60576177 0.13757138 0.008821499
00000000: fa7e e7bd 4e83 7d3e 2694 183d a158 9bbc
00000010: b4e3 b6bd b7c3 a23d 13cb 553c 5db5 003e
00000020: d7e7 a0be 3a01 92bf 7b49 d8bd adf0 223d
00000030: c07f 723c 0d9f 193d 25c4 b33d 38de 04be
00000040: 940e 9fbe e3bf aebd 351f e9bd a0b8 80bd
00000050: abc1 753d a6de 8f3d de86 7ebe f093 ae3e
00000060: 6f09 163e ddd3 733e a05d 09be 5292 1fbe
00000070: a06c 9e3d f00f 36be 5df7 a53c 9047 403d
00000080: 703c 3d3e ac10 893c b39e 963d 17fa b0ba
00000090: 8ff1 76bd 5626 013d db48 79be 5902 ba3d
000000a0: 7a46 7a3d d7d7 c13e f21f 0c3d dd2c 4d3d
000000b0: 76b5 99bd 77f1 8c3d 8f42 793e 582d cd3d
000000c0: daec 443d b354 0bbe 9685 1dbe 2554 cbbd
000000d0: 58ae 8f3e ee8f d93a edcd 0cbd f772 0fbe
000000e0: 97af c6bb f5e6 f6be ab46 33bd d4e0 8fbd
000000f0: 4a46 82bd 3413 1bbf 83df 0c3e 0c88 103c

net.4.weight f4 [5, 64]
-0.02341638 -0.069800764 -0.08892866 0.049536657 0.09062066 0.036974054 0.0012564332 -0.00861158
0.10532798 -0.0017956131 -0.027037915 0.09974331 -0.017583912 -0.010762231 -0.03117621 -0.09171668
0.058252916 -0.03996498 0.0138344765 -0.061927076 -0.022172403 -0.10642301 0.012470981 -0.036883287
-0.19112872 -0.048432868 0.06763683 0.0048147314 0.062251598 0.009457807 -0.07346284 0.07016763
-0.027715093 0.01864098 0.03682691 -0.011728686 -0.098908365 -0.010698353 0.01634704 -0.09196548
-0.013553907 -0.032838326 -0.053107943 0.1132933 0.05482151 0.11702234 0.06607319 -0.014434949
-0.037665177 -0.079404 -0.04923349 -0.08307246 -0.010159148 0.1006066 0.030343194 -0.059326217
0.075762235 0.0004577548 0.0368235 0.047812354 -0.039258182 0.020347975 0.05444054 -0.08135882
0.0070140534 -0.058513053 0.06602718 0.116267584 0.056448027 -0.021964772 0.0045408513 -0.0017458807
0.090363726 -0.007650955 0.04540241 0.030179635 -0.0024799642 -0.0028376938 -0.050626207 0.043229148
0.031807717 0.06487963 -0.06255914 -0.011979147 0.045618434 0.050852973 0.002723522 -0.046837263
-0.32003665 -0.040099915 -0.11109741 -0.040140413 0.049080983 0.006492846 -0.10954424 -0.035747454
-0.019924277 -0.005037159 -0.11898043 0.04673471 0.06469004 0.0131977815 0.06136936 -0.044321038
-0.011276242 -0.06707218 -0.021606892 -0.0829696 -0.03227626 -0.13850039 0.04407739 -0.11843374
-0.029398572 -0.018553182 -0.08045687 0.032950897 -0.004952386 0.07648451 -0.01839497 0.020210734
0.080459565 0.040769737 0.08070383 0.043230515 -0.14221911 0.01451037 0.06030113 -0.098434344
-0.009267148 -0.029682508 -0.078644 -0.012104322 0.020405114 -0.064536415 0.028261852 -0.02737072
0.060213167 -0.09069503 0.08966521 0.11222358 -0.04775575 0.044142317 -0.11942524 0.03399323
-0.010945696 -0.08326264 0.010379199 -0.018651495 0.045059554 -0.052932967 -0.017127126 0.04698899
0.015415232 -0.019880403 0.05812864 -0.09151098 0.080901176 -0.032658577 -0.07811383 0.06498738
0.05703677 -0.034791928 -0.07239135 0.057784084 0.117436394 -0.090750866 -0.04640767 0.08892778
-0.007326289 0.08013186 -0.04145175 -0.00809832 -0.05329604 -0.09277748 0.0025071562 0.12449372
0.0197336 0.0048369314 -0.097686805 0.04648893 0.070593454 0.019871574 -0.0049511436 -0.074871756
0.04174933 -0.09030048 0.017140565 0.043185715 0.038632173 -0.041785013 0.10346643 -0.1051845
-0.04752259 0.04021457 0.056066655 0.107928924 0.05940449 0.028919168 -0.038988754 -0.005922557
0.056814503 -0.09313937 0.008892274 0.0018677576 -0.016395355 0.0618916 0.019401731 -0.07076784
-0.016275318 -0.065146774 -0.09503356 -0.08635534 0.084567554 -0.008328184 -0.039078973 -0.04827861
-0.012838235 -0.015763288 -0.06236035 -0.03618509 -0.0170722 -0.022866225 -0.105307095 -0.060689434
-0.054956973 0.010358887 -0.016967384 0.02199198 -0.11611701 0.06881654 -0.032586616 0.098590575
-0.03715478 0.07051359 0.065483935 0.037445523 -0.025203323 -0.06483616 0.03393713 -0.03323728
0.05696863 0.12132792 -0.065551445 -0.024816828 -0.019214543 -0.07630646 0.046861462 0.031450186
0.037112784 -0.09246119 -0.04599718 -0.075132504 0.123065025 -0.072962396 0.0969799 -0.0852686
00000000: b5d3 bfbc b4f3 8ebd 3b20 b6bd f3e6 4a3d
00000010: 5397 b93d 1b72 173d e7ae a43a 9617 0dbc
00000020: 32b6 d73d c75a ebba 9e7e ddbc 3846 cc3d
00000030: 230c 90bc 1254 30bc 4065 ffbc f4d5 bbbd
00000040: 9c9a 6e3d 52b2 23bd 00aa 623c 3fa7 7dbd
00000050: e6a2 b5bc 4ff4 d9bd 1653 4c3c ee12 17bd
00000060: 3fb7 43be 8b61 46bd 2e85 8a3d e5c4 9d3b
00000070: 88fb 7e3d ebf4 1a3c af73 96bd 0cb4 8f3d
00000080: c30a e3bc f8b4 983c d0d7 163d ad29 40bc
00000090: 7890 cabd 2548 2fbc 3aea 853c 6658 bcbd
000000a0: 3511 5ebc 7b81 06bd b787 59bd 5106 e83d
000000b0: 858c 603d 69a9 ef3d 6151 873d 9080 6cbc
000000c0: cd46 1abd 909e a2bd 0ea9 49bd e521 aabd
000000d0: 8e72 26bc d50a ce3d 4a92 f83c 0c00 73bd
000000e0: 3b29 9b3d cffe ef39 3dd4 163d e3d6 433d
000000f0: 30cd 20bd ccb0 a63c 0bfd 5e3d 749f a6bd
00000100: 25d6 e53b 62ab 6fbd 4239 873d b31d ee3d
00000110: 0c36 673d 77ef b3bc 6ccb 943b 09d6 e4ba
00000120: 9e10 b93d ddb4 fabb e1f7 393d 483b f73c
00000130: e586 22bb 9af8 39bb 6d5d 4fbd 0c11 313d
00000140: cf48 023d 9ddf 843d 021f 80bd 2f44 44bc
00000150: 65da 3a3d 354b 503d 1e7d 323b 6ed8 3fbd
00000160: d8db a3be cf3f 24bd 0a87 e3bd 466a 24bd
00000170: 2409 493d f1c1 d43b bb58 e0bd ec6b 12bd
00000180: 3d38 a3bc c10e a5bb 03ac f3bd e56c 3f3d
00000190: 367c 843d 823b 583c 705e 7b3d fa89 35bd
000001a0: fdbf 38bc 245d 89bd f000 b1bc f7eb a9bd
000001b0: 1d34 04bd 0cd3 0dbe 7e8a 343d 648d f2bd
000001c0: 46d5 f0bc d8fc 97bc 92c6 a4bd 85f7 063d
000001d0: a047 a2bb e9a3 9c3d 0cb1 96bc fb90 a53c
000001e0: fcc7 a43d 2bfe 263d 0d48 a53d 7b12 313d
000001f0: e3a1 11be e7bc 6d3c 51fe 763d f297 c9bd
00000200: 3cd5 17bc bb28 f3bc 1b10 a1bd 3551 46bc
00000210: a028 a73c ab2b 84bd 6685 e73c 8f38 e0bc
00000220: 15a2 763d 51be b9bd 65a2 b73d 7ad5 e53d
00000230: 899b 43bd 93ce 343d 3895 f4bd 7c3c 0b3d
00000240: 9455 33bc 9a85 aabd 840d 2a3c 05cb 98bc
00000250: 5e90 383d 3dd0 58bd 304e 8cbc 8777 403d
00000260: 2b90 7c3c 3adc a2bc 4c18 6e3d 1c6a bbbd
00000270: 84af a53d 00c5 05bd 25fa 9fbd 1a18 853d
00000280: 639f 693d fb81 0ebd eb41 94bd 01af 6c3d
00000290: 7e82 f03d 97db b9bd f815 3ebd c51f b63d
000002a0: 5e11 f0bb 2c1c a43d 4fc9 29bd d1ae 04bc
000002b0: f34c 5abd 1f02 bebd 1a4f 243b 90f6 fe3d
000002c0: 5ca8 a13c 1f7f 9e3b 0510 c8bd 2d6b 3e3d
000002d0: 4d93 903d b6c9 a23c 343d a2bb 5d56 99bd
000002e0: 5801 2b3d 75ef b8bd 5f6a 8c3c 81e3 303d
000002f0: c53c 1e3d c326 2bbd 35e6 d33d f96a d7bd
00000300: 0ca7 42bd 08b8 243d 26a6 653d d709 dd3d
00000310: 1f52 733d e4e7 ec3c acb2 1fbd 0212 c2bb
00000320: 53b6 683d dbbf bebd e7b0 113c 8ccf f43a
00000330: 8d4f 86bc 0c82 7d3d 61f0 9e3c bbee 90bd
00000340: d153 85bc ac6b 85bd f5a0 c2bd 12db b0bd
00000350: c131 ad3d ef72 08bc 4611 20bd cbbf 45bd
00000360: 7657 52bc 0322 81bc 916d 7fbd d136 14bd
00000370: 00db 8bbc f351 bbbc 3fab d7bd 7c95 78bd
00000380: 901a 61bd 52b8 293c 2fff 8abc 8628 b43c
00000390: c1ce edbd b0ef 8c3d 8b79 05bd dbe9 c93d
000003a0: 9c2f 18bd 6e69 903d 711c 863d 7a60 193d
000003b0: 3377 cebc d2c8 84bd a901 0b3d d023 08bd
000003c0: f057 693d c67a f83d d63f 86bd a94c cbbc
000003d0: d167 9dbc 9046 9cbd cef1 3f3d e9d1 003d
000003e0: 9303 183d 4b5c bdbd 8a67 3cbd 12df 99bd
000003f0: 8409 fc3d 4f6d 95bd 669d c63d 4ea1 aebd

net.4.bias f4 [5]
-0.23079424 -0.1526225 0.12890497 0.31276393 0.19734746
00000000: 5355 6cbe 1349 1cbe aaff 033e 9822 a03e
00000010: 7415 4a3e
